models/model.pth (torch, 164900 bytes, 21 tensors)

weight f4 [24, 3, 3, 3]
000000 5a 2d 4b bd 13 f0 cf 3d 16 8e 11 be dd e9 d2 3d
       -0.049603797 0.101532124 -0.14214358 0.10298512
000010 f3 23 08 3f 83 8a 2a 3e 0f 61 11 be 88 0d 36 3e
       0.53179854 0.166544 -0.14197181 0.177786
000020 8f 52 d4 3d 40 7e ef 3e 0a bd 24 3f fe d9 ce 3e
       0.10367309 0.4677601 0.6435095 0.4040069
000030 3d c0 25 3f 99 54 63 3f aa 9f 32 3f 9f 15 be 3e
       0.6474646 0.8880096 0.6977488 0.3712587
000040 ae 28 2d 3f 6c 7f 09 3f 8f c0 e1 be cb cb 36 bf
       0.676402 0.53710055 -0.44092223 -0.71404713
000050 cd cb 91 be 8e 03 47 bf 68 54 b4 bf 7e aa 5e bf
       -0.284758 -0.777398 -1.4088259 -0.869789
000060 9d e2 9a be 2d 34 5f bf d7 21 34 bf 47 ae 26 3f
       -0.30251017 -0.8718899 -0.70364136 0.65109676
000070 ae 4e 43 3d 5d e4 39 bf dd 1c 90 3f 40 9d a2 bd
       0.047682457 -0.7261408 1.1258808 -0.07940149
000080 40 ce 8b bf 56 57 21 3f 25 d0 7d 3e e6 55 53 bf
       -1.0922318 0.6302389 0.24786432 -0.82552946
000090 15 bc 97 3f 3e 2a 1f 3e 91 88 ab bf 24 59 e9 3f
       1.1854273 0.15543458 -1.3401052 1.8230329
0000a0 34 88 1e bb 97 b5 e9 bf 7b 95 95 3f b4 55 49 3e
       -0.002419007 -1.8258542 1.1686243 0.196616
0000b0 6f 52 b1 bf 23 ad d5 3e a3 30 51 3e a9 57 1b bf
       -1.3853282 0.41733655 0.2042871 -0.60680634
0000c0 16 fc 5a 3f 90 ea a8 3c 58 78 56 bf 09 ce f5 3e
       0.855409 0.02061966 -0.8377738 0.48008755
0000d0 a4 e0 8d 3d 2d 49 19 bf 87 06 7f bf 72 c6 3e 3e
       0.069276124 -0.5987728 -0.99619335 0.18630388
0000e0 54 58 5a 3f 33 79 b8 bf da a1 68 bd cd 54 c1 3f
       0.8529103 -1.4411987 -0.05679498 1.5104004
0000f0 dd 5d 86 bf a4 f4 c7 bc fa 2e 7f 3f db 21 96 bf
       -1.0497395 -0.024408646 0.99681056 -1.1729082
000100 86 25 bf bc 17 9a 93 3f fb 76 d8 bf a5 8c 73 bd
       -0.023333322 1.15314 -1.691131 -0.0594603
000110 0e 56 de 3f 56 7d a7 bf 54 e2 61 3e f4 ac 8f 3f
       1.7370012 -1.3085124 0.22058994 1.1224656
000120 05 fa 92 be c8 f6 8c bb cb 9e 94 3e fc 73 e8 be
       -0.28706375 -0.0043018796 0.290274 -0.4540099
000130 3f fb 2b 3c 73 06 df 3e 93 37 ca be ae 70 55 3e
       0.010496913 0.43559608 -0.39495525 0.20843765
000140 09 59 62 3e 44 89 00 3e 2c 61 7a be 48 91 c5 be
       0.22104277 0.12552363 -0.2445113 -0.38587403
000150 30 5f 94 3e 9e 45 a3 bd 38 06 c5 be 21 bc d4 3e
       0.28978872 -0.07972263 -0.38481307 0.4154978
000160 e6 0b db 3e 27 50 e4 bd 47 5e 9c 3d 57 39 6b 3f
       0.42782515 -0.111481 0.076351695 0.9188437
000170 f1 28 dc 3e 8a 14 5c bf bb 4f 3a 3d 79 28 5b 3f
       0.42999986 -0.8596884 0.045486193 0.8560863
000180 89 8b d3 be 73 64 7f bf 83 e4 ab bd 65 97 dc bd
       -0.41317394 -0.9976265 -0.083931945 -0.10771064
000190 0b 92 cd 3f 0f 7a 29 3f ab 27 be bf 14 ed fe 3d
       1.6060194 0.6620187 -1.4855856 0.12447563
0001a0 e5 4d d1 3f b5 98 2e bf 2a 32 ee bf b5 b3 00 3d
       1.6351897 -0.6820176 -1.8609059 0.031421382
0001b0 f0 9b 2b 3f 6b b1 d6 3f 93 bd 29 3f 2b b6 a0 bf
       0.67034817 1.6772894 0.6630489 -1.2555593
0001c0 89 95 4a 3e f8 2e c4 3f 82 93 60 bf c4 86 ff bf
       0.19783606 1.5326834 -0.8772508 -1.9963002
0001d0 c1 d8 27 bf 88 b2 cb 3e b0 22 84 3f eb 1a 0e 3f
       -0.65565115 0.39784646 1.0323086 0.55509824
0001e0 ce 29 58 bf c3 82 24 bb 72 7f 50 3f 13 a5 02 bf
       -0.8443879 -0.0025102354 0.81444466 -0.51033133
0001f0 77 69 87 bf c0 9d d7 be 8f 0b ad bd 96 ad 04 be
       -1.057906 -0.4211254 -0.0844947 -0.12956843
000200 49 4d 15 be f2 ae 05 3d 1f 5a 2d bd 6e 75 e6 bd
       -0.14580263 0.032637544 -0.042322274 -0.11252867
000210 ff 86 53 3e b5 90 51 3e df 9c e5 3d a3 bd 6e bf
       0.20656966 0.20465358 0.112115614 -0.9325811
000220 98 4c 82 be 92 b9 de 3e 98 ba 31 be 8f 43 d6 3f
       -0.2544906 0.43500954 -0.17356336 1.6739367
000230 b7 75 8d 3c 00 84 d0 3e bf c2 b4 bd ba d4 6a bf
       0.017268045 0.40725708 -0.08826207 -0.91730845
000240 79 9d ab bf a3 4a 64 be 61 48 0d 3f 83 51 2b bd
       -1.3407432 -0.22294097 0.55188566 -0.041825783
000250 2e 57 12 40 ec 29 90 bd be 96 13 3f e8 f5 35 be
       2.286571 -0.07039246 0.5765189 -0.17769587
000260 9b 48 b1 bf e6 66 12 bf aa 63 dc bd a7 cc a4 3e
       -1.3850282 -0.5718826 -0.10761197 0.32187387
000270 38 8b 8b bd 8b 5a 9a 3f 68 7d 02 be bf 6d 9a 3e
       -0.06813663 1.2058882 -0.12743151 0.30161855
000280 e3 1a 73 be e1 2d 25 bf c0 99 2c 3f 27 5d 3d 3f
       -0.23740725 -0.6452313 0.67422104 0.73970264
000290 95 18 87 3e c8 40 6c bf 0c 74 c4 bf 86 e4 7c bf
       0.26385942 -0.9228635 -1.5347915 -0.987862
0002a0 24 e1 7f 3e b8 d2 39 3f 68 09 41 3f c3 fa 81 3f
       0.24988228 0.72587156 0.7540498 1.0154651
0002b0 ad bc 86 3f 93 a2 d7 3e e1 2a b1 bf 75 9c 0e c0
       1.0526329 0.42116222 -1.3841211 -2.2282994
0002c0 ab be be bf 8a 0c be 3e 5d f5 83 3f 29 e2 8a 3f
       -1.4901937 0.37118942 1.0309254 1.0850269
0002d0 c0 46 c6 3e 0d a3 0a 3f 07 19 3e 3e cb fc 0b bf
       0.38725853 0.54155046 0.18564235 -0.54682606
0002e0 9b 8c 78 bf 35 b8 17 bf 25 0f 25 3e 35 c6 ed 3e
       -0.97089547 -0.5926545 0.16119058 0.46440282
0002f0 44 2b bc 3e aa dd c6 bc 32 bc c3 3e a2 67 91 3d
       0.3675176 -0.02427562 0.3822952 0.070998445
000300 05 ff d2 3e 89 22 9b 3f 3f bb 13 3f 16 8c c0 3d
       0.4121019 1.2119914 0.5770759 0.09401719
000310 50 eb 19 3f 8f 6c 97 3e 66 2c 46 be c7 7f 5b bf
       0.60124683 0.2957501 -0.19352874 -0.8574185
000320 66 87 70 be fc 53 62 bf 8e 43 13 c0 6f ec 93 bf
       -0.2348915 -0.884094 -2.3009982 -1.1556529
000330 38 26 a8 be 0d 82 9d bf dc f1 2f bf 7f 11 6e 3e
       -0.3284166 -1.2305313 -0.68728423 0.23248862
000340 c0 28 fc 3e 84 fa 24 3e 62 02 03 3f 13 a7 91 3f
       0.4924984 0.16111189 0.5117551 1.1379112
000350 07 ef 21 3f 9d d1 59 3e 58 cf 2f 3f 2f 3d c2 3e
       0.6325535 0.21271367 0.68675756 0.37937304
000360 f0 98 bd be 4f ab 22 bf 2c 96 0f be 5f ae 38 bf
       -0.37030745 -0.63542646 -0.1402213 -0.7214107
000370 04 70 b3 bf 31 e0 39 bf e4 ce 1e be 81 ff 2d bf
       -1.401856 -0.72607714 -0.1550861 -0.67967993
000380 d9 9c 92 be a0 b9 11 3f fe cd 8a 3f 18 ba be 3e
       -0.2863529 0.56923866 1.0844114 0.37251353
000390 84 e2 91 3f dc 57 0a 40 3b bb 99 3f 38 85 a1 3e
       1.1397252 2.1616125 1.2010263 0.3154695
0003a0 07 ca 90 3f d6 15 21 3f db ad 37 be f1 61 e4 be
       1.1311654 0.62923944 -0.17937414 -0.44605973
0003b0 8a 79 60 be 00 74 e5 be 0f 9a 67 bf ce 5f fb be
       -0.21921363 -0.44815063 -0.9046945 -0.4909653
0003c0 be d8 22 be c1 03 f6 be dc 63 bd be dc fc 77 be
       -0.15902993 -0.4804974 -0.3699025 -0.24217552
0003d0 31 e3 5f 3f 1b 44 18 bf d5 3d 6a bf 31 05 df 3f
       0.8745604 -0.5947892 -0.915006 1.7423459
0003e0 7f 11 5b bf 78 1e 3f bf 03 40 6b 3f 28 12 2b be
       -0.8557357 -0.74655867 0.9189455 -0.16706145
0003f0 4f b3 c3 be 00 f1 a9 3f c1 99 68 bf 9d e8 98 bf
       -0.3822274 1.3276672 -0.9085961 -1.1945988

weight f4 [24]
000000 13 0d a0 3f ad 1f e1 40 cb 06 e2 40 7b ae 7b 40
       1.250399 7.0351167 7.063329 3.9325244
000010 d9 10 a9 40 33 cb 97 40 30 10 ba 40 8b 2c 90 3f
       5.2833066 4.7435546 5.814476 1.1263593
000020 06 f9 9c 3f 06 23 bd 40 8b b2 e7 40 8a a1 ca 40
       1.2263496 5.9105253 7.240545 6.332219
000030 a3 df d0 40 36 0f a5 3f 98 a9 9b 3f c5 49 f6 3f
       6.5272994 1.2895267 1.2161131 1.9241263
000040 0a b7 bc 40 c7 f8 c4 40 01 0f dd 40 8f 58 fd 3f
       5.8973436 6.1553683 6.9080815 1.9792651
000050 81 c8 60 40 57 9b ce 40 bd 20 ba 40 aa 6c 97 40
       3.5122378 6.4564624 5.8164964 4.7320147

bias f4 [24]
000000 b9 39 a0 3f ec fa 36 3f a4 0e 27 3f 63 15 21 3f
       1.2517616 0.71476626 0.65256715 0.6292326
000010 40 04 4c 3f c3 10 92 40 1f 27 48 40 9b 93 50 40
       0.79693985 4.564546 3.1273878 3.2590091
000020 46 c9 1b 40 fb 24 87 3f 57 54 fe c0 3b 78 8b 3f
       2.4341598 1.055816 -7.9477954 1.0896066
000030 57 f8 63 3f 6d 7f 83 40 78 d0 dc 3f cd bd cd 40
       0.8905081 4.109305 1.725112 6.429419
000040 ab 34 f5 3f 95 ed 44 41 aa 90 99 41 36 d6 ac 40
       1.9156698 12.308003 19.195637 5.401149
000050 42 c9 1b 40 b6 04 75 3f 70 b8 47 40 05 70 50 41
       2.4341588 0.95710313 3.1206322 13.0273485

running_mean f4 [24]
000000 39 78 d4 be af a7 7c 3d e9 44 32 bd 9c 3f 29 3c
       -0.41497973 0.061683353 -0.04352275 0.010330107
000010 fb 22 f5 3c 0c 8f 0d be c1 ed a6 3d 1b 13 4e 3e
       0.029923907 -0.138241 0.08150817 0.20124476
000020 ac b2 f3 bd ab de db bc 6d 78 f2 be e8 09 a1 3d
       -0.11899313 -0.026839575 -0.47357503 0.078632176
000030 4e 64 18 bd 94 39 81 be 1d 0a 5f be ff 7f df 3e
       -0.037205033 -0.2523924 -0.21781202 0.4365234
000040 48 b8 57 bd bb 65 0d c0 0d 10 07 40 de eb 94 3c
       -0.05266598 -2.2093341 2.1103547 0.018178876
000050 6f 1c fe bb d8 9d 40 bc 96 89 57 3d 7f 1d 4c 3e
       -0.0077548544 -0.011756383 0.052621447 0.19933127

running_var f4 [24]
000000 ae 75 8c 40 e9 be fc 41 69 b6 fe 41 61 e8 cb 40
       4.389365 31.593218 31.839067 6.3721166
000010 2e d4 7b 41 1b fc cf 40 6b 07 00 41 ae b1 28 40
       15.739302 6.4995246 8.001811 2.6358447
000020 c0 6e 78 40 dd 96 02 41 e8 7c 17 40 f6 8d a7 41
       3.8817596 8.161832 2.3669987 20.944317
000030 1a 10 b5 41 86 c7 4a 40 4b d7 f5 40 07 48 f6 40
       22.632862 3.168428 7.682531 7.6962924
000040 b5 bc f2 40 25 0b 3c 42 fc 1e 2e 42 b7 8a 0e 40
       7.5855355 47.010883 43.53026 2.2272165
000050 1d 9d ee 3f 70 c8 ac 41 d9 63 02 41 bb 8a e1 40
       1.8641697 21.59787 8.149377 7.048185

weight f4 [24]
000000 e4 86 81 3f e0 01 78 3f ad a9 7c 3f d6 93 73 3f
       1.011929 0.9687786 0.98696405 0.95147455
000010 65 50 74 3f 05 b7 79 3f 0b 0b 77 3f 25 7f 81 3f
       0.9543517 0.9754489 0.96501225 1.0116926
000020 fd bb 7e 3f 03 b8 76 3f de d6 78 3f ba 94 77 3f
       0.995056 0.9637453 0.9720286 0.96711314
000030 60 0c 75 3f 41 e7 7d 3f 2a a2 7f 3f 1c a4 7c 3f
       0.9572201 0.9918099 0.9985682 0.9868791
000040 43 cc 74 3f 79 61 81 3f bf 04 80 3f ad 26 7a 3f
       0.9562418 1.0107871 1.0001448 0.97715265
000050 7b 6b 74 3f f3 46 78 3f 03 5a 7a 3f 75 4a 77 3f
       0.954765 0.9698326 0.97793597 0.9659799

bias f4 [24]
000000 3d 7f 56 3d 9d 16 ca bc be 95 83 bc 45 98 0a bd
       0.052367438 -0.024668986 -0.016062614 -0.03383662
000010 f0 c8 16 bd fb fe 51 3d 15 df c3 bb f4 49 b5 3d
       -0.036812723 0.05126856 -0.005977521 0.08851996
000020 4d eb 9a 3b 70 cf 61 3c a9 e2 0a bd d5 0b b3 bb
       0.004727757 0.013782367 -0.033907566 -0.005464057
000030 0d 88 17 bd 3f 63 39 3d e5 f6 54 3d 46 3a e1 bd
       -0.036994983 0.045260664 0.05199327 -0.10997443
000040 f3 27 01 3d 0a 1e 97 3d 97 98 c7 3c c0 08 ca bd
       0.03153224 0.07378776 0.024364753 -0.0986495
000050 48 dc 8b 3b aa f4 e5 bc a5 07 92 3c f0 9e b8 bc
       0.004268203 -0.028070766 0.01782591 -0.022536725

running_mean f4 [24]
000000 36 9b ab 3f 9d 98 2e 40 f9 15 2e 40 a2 4c d3 3f
       1.3406742 2.7280648 2.720091 1.6507761
000010 16 7a 0f 40 a4 03 a0 40 2d e2 7f 40 c8 b6 50 40
       2.2418265 5.0004444 3.9981797 3.261156
000020 2e 0a 1e 40 37 04 21 40 c2 7a 14 3f ad d6 2e 40
       2.4693713 2.5158823 0.57999814 2.7318528
000030 33 2a 2b 40 28 af 83 40 c3 74 e0 3f 8b b6 cd 40
       2.6744506 4.1151314 1.7535633 6.428533
000040 28 53 47 40 52 e4 44 41 59 8b 99 41 bc b3 ad 40
       3.1144505 12.305742 19.19304 5.42819
000050 a8 74 38 40 64 60 2d 40 b0 80 80 40 97 ff 50 41
       2.8821201 2.7090082 4.015709 13.0624

running_var f4 [24]
000000 01 21 9a 3f 62 5c a8 41 fd 1d a5 41 ee 94 dc 40
       1.2041322 21.045109 20.639643 6.89318
000010 d0 01 40 41 32 e8 75 41 37 26 98 41 82 b2 9f 3f
       12.0004425 15.369188 19.01866 1.2476351
000020 6c 71 a5 3f 43 46 78 41 07 12 45 40 ed 09 8d 41
       1.2925239 15.517154 3.0792253 17.629847
000030 43 a9 94 41 11 06 cc 3f af 89 a6 3f ee 97 6c 40
       18.582647 1.5939351 1.3010768 3.696773
000040 e7 fc 86 41 85 83 17 42 e8 aa 3e 42 66 fb 5f 40
       16.873487 37.878437 47.6669 3.4997191
000050 10 1f eb 40 17 3c 92 41 aa 1f 96 41 7b 6f a9 41
       7.347542 18.27934 18.765461 21.179434

weight f4 [48, 24, 3, 3]
000000 36 90 26 bd 3b 4f 13 be 9a 3a 6e bd d1 e2 77 be
       -0.040664874 -0.14385693 -0.058161356 -0.24207617
000010 fb b9 e6 bd 35 4f 00 be 4b ca 82 be ed 86 c9 3d
       -0.11265942 -0.12530215 -0.25544962 0.09840188
000020 27 7f 05 be 91 66 7d 3d 91 2f a2 bd c3 5d 47 bd
       -0.13036786 0.061865393 -0.07919229 -0.048673403
000030 28 f0 6e bd a6 5e 0d bd 01 a0 b5 3d 8a 64 9a bd
       -0.0583345 -0.034514092 0.08868409 -0.075387076
000040 f1 8e 21 3e 90 f0 05 be 3e b0 50 3d 50 0b 19 be
       0.15777184 -0.13080049 0.050949328 -0.14945722
000050 89 c6 42 3c c6 86 09 3e d1 c5 a6 bd a7 6e 42 be
       0.011888155 0.13430318 -0.08143199 -0.18987523
000060 f8 65 ee bd a0 c9 ef 3c 8f 14 fc 3d 67 e5 12 3d
       -0.11640543 0.029270947 0.12308609 0.035863306
000070 2a 10 1d be 42 a0 27 3c 96 8d 30 3e b6 4e 81 3d
       -0.15338197 0.0102310795 0.17241511 0.06313841
000080 c3 11 11 be a7 a2 bb 3d f2 29 ca bd 09 bf fb 3d
       -0.14166932 0.09161883 -0.09871282 0.122922964
000090 13 e0 8f ba 18 d5 20 be 5c 84 ce bd fc 7b d8 bd
       -0.0010976814 -0.15706289 -0.10083839 -0.10570523
0000a0 ff f9 63 3d be 4a 4d bd 5c 40 d4 3d 76 7c 66 bb
       0.055658337 -0.050120108 0.10363838 -0.00351694
0000b0 0c 18 cb 3d 15 d2 be 3d 72 d5 b9 3d ab 1f ba bd
       0.09916696 0.09317414 0.090739146 -0.090880714
0000c0 8e 32 0c 3d ec 19 81 bc 11 39 c6 bd e6 70 a6 bd
       0.0342279 -0.01575943 -0.09678853 -0.081270024
0000d0 2d f1 b3 bd 28 0e a9 3c ec 56 85 3d 21 d6 0e be
       -0.08786235 0.020636633 0.0651072 -0.13948871
0000e0 fd c5 d8 3d 0a 17 28 3d fc 48 1c be aa 22 4b be
       0.10584638 0.041037597 -0.15262216 -0.19837442
0000f0 1a d3 ea bd 42 1c 86 3b fc d7 df 3d 06 aa 93 3c
       -0.11466046 0.004092724 0.109298676 0.01802541
000100 79 96 94 bc a6 e4 02 be 73 ae 1f 3e 5b 05 64 3d
       -0.018138157 -0.12782535 0.15593891 0.05566917
000110 7f 3e fe bd 8d 3f f8 bd 8a 56 a3 3d b7 a8 e1 bc
       -0.12414264 -0.12121496 0.079754904 -0.02754627
000120 57 c5 07 3e 77 3c fb 38 cc 5d 5a be d1 12 44 bd
       0.13258873 0.00011979875 -0.21324843 -0.047869507
000130 1b 01 18 bb d7 49 4c be a3 15 9c 3d ae 27 a6 3d
       -0.0023194018 -0.19950043 0.076213144 0.08113037
000140 d9 4c 69 bd 68 ff ff 3d c2 3c 9a bd 96 cd 08 bd
       -0.056958053 0.12499887 -0.0753112 -0.033399187
000150 ed 3d 00 3b c8 08 5c 3d 3c 71 43 bd 9c cf 8a bd
       0.001956816 0.053719312 -0.04771541 -0.067778796
000160 9c e5 ad 3d 0b 19 7c 3d 05 f6 1b be 2f b3 a9 bd
       0.0849106 0.06154732 -0.15230568 -0.0828613
000170 b3 08 f7 bd 9c 0e 57 be 75 68 4c 3d c7 4d 4a 3d
       -0.12062206 -0.21001667 0.049904305 0.04939058
000180 64 92 a8 3c f3 15 8a bb a7 95 e8 bd 6f 93 98 bd
       0.020577617 -0.0042140423 -0.11356669 -0.07449996
000190 ad 34 1f 3e 6e e0 1c be aa 07 10 bd aa f4 16 3e
       0.15547438 -0.15319988 -0.03516356 0.1474177
0001a0 ed e2 94 bd 3f 90 24 bb 4c 61 24 be 47 b9 47 3e
       -0.07269845 -0.0025110391 -0.16052741 0.19504271
0001b0 d5 01 00 bd b4 85 11 bd 79 a0 e7 3d 8e ef c6 bd
       -0.031251747 -0.0355279 0.113099046 -0.0971366
0001c0 e7 6b 3e bd 68 82 ed ba e1 f2 91 bd 37 20 ad bd
       -0.046489622 -0.0018120529 -0.071264036 -0.0845341
0001d0 84 79 fc bc 19 42 55 3d 01 a4 2e be 0e 85 05 3e
       -0.030819662 0.05206499 -0.1705475 0.13039038
0001e0 24 f6 fa bc 59 3f 1d 3c 94 c7 c4 3c 0f 46 8e bd
       -0.030634947 0.009597623 0.024020948 -0.06946956
0001f0 76 dc 27 3c 17 c7 83 3d 5c 40 07 3e 28 0e 17 3d
       0.010245433 0.06434458 0.13208145 0.036878735
000200 a9 12 1d 3d 41 b5 69 be a6 55 40 be 07 a2 9e 3d
       0.038347874 -0.22823049 -0.18782672 0.07745748
000210 c9 cd 0e bd 24 28 fa 3d ce 9d dc bc d3 d6 13 3e
       -0.03486422 0.122146875 -0.026930716 0.14437418
000220 e1 88 f2 bd a7 a9 1c bd 7d 93 81 3d 3e 6e 9f 3d
       -0.11842514 -0.03824773 0.06326959 0.07784699
000230 01 02 56 bc 19 01 bf 3d 39 ef 53 3c 98 d8 1a 3d
       -0.013062001 0.09326381 0.012935453 0.037804216
000240 5b 35 06 3e 0a 15 c7 bd 55 80 43 3e 7d 7b c5 3c
       0.13106291 -0.0972081 0.19091924 0.024106735
000250 ad 5d 23 3d f9 01 9a 3d a5 40 c0 bd cc 70 39 3d
       0.039884258 0.075199075 -0.0938733 0.045273587
000260 a4 72 26 3d 90 8f 22 3e a9 31 98 3d a0 e1 84 3d
       0.040636674 0.15875077 0.07431347 0.06488347
000270 65 65 33 3e 8b ae ab 3d b0 0a fa 3b 89 75 98 bd
       0.17519148 0.08382901 0.0076306686 -0.07444293
000280 32 3e bc bd 9d 82 fd bd 7b 32 0c be cd 44 f9 3d
       -0.0919155 -0.12378428 -0.13691132 0.12171326
000290 d1 f0 f3 3c 7e cb 61 3d 73 a7 83 3d de 00 71 bd
       0.029777916 0.055125706 0.06428423 -0.058838718
0002a0 ae 48 9f bd 17 f9 f6 bb 72 34 dc bc ff ac 2b 3d
       -0.077775344 -0.007537018 -0.026880477 0.04191303
0002b0 36 c9 54 bd 74 9c 74 be 93 d8 3a be b5 52 29 3c
       -0.051949702 -0.23887807 -0.18246679 0.01033466
0002c0 d7 19 d8 bc cd 18 32 be 83 7e 20 be 9c 21 d2 3d
       -0.026379509 -0.17392273 -0.1567326 0.10260317
0002d0 25 42 91 bc c7 08 5e bd 12 ea bf 3d 12 db 96 bd
       -0.017731735 -0.05420759 0.09370817 -0.07366003
0002e0 df 75 66 3d fe 97 f6 bd 25 f0 30 3d c2 37 04 bd
       0.056264754 -0.12040709 0.04319777 -0.032279737
0002f0 58 32 25 bd 8b fd 1c be 0d 0c ac bd 38 17 0b 3e
       -0.040331215 -0.15331094 -0.08400736 0.13583076
000300 b0 37 17 be 41 41 9a bd 9f 33 0a be cc af 86 3d
       -0.14767337 -0.075319774 -0.13496254 0.06576499
000310 d2 5d 2c be 95 3c 84 bd 08 fb db bc 53 e2 a1 ba
       -0.16832665 -0.064568676 -0.0268531 -0.0012350775
000320 ec 65 50 bd 08 7b 58 3d 74 30 b3 bd 26 e1 5b bd
       -0.05087845 0.052851707 -0.08749476 -0.053681515
000330 5b bc a8 3c 14 05 31 ba cd 47 38 bd e3 25 11 3e
       0.020597627 -0.0006752771 -0.04499035 0.14174609
000340 a9 73 cb 3d 52 2a 33 be 43 ff bd 3d 72 fc 0b 3e
       0.0993417 -0.17496613 0.09277203 0.13670519
000350 a1 df 21 be 7c f4 37 3c d3 eb 0e 3d 3b 2e db 3c
       -0.15807964 0.011227723 0.03489287 0.026755443
000360 b4 63 07 3e e1 39 cc 3d 7e ed 01 bd 95 d6 a7 3c
       0.13221627 0.09971977 -0.03172063 0.020488063
000370 8c 61 ee 3c c2 48 97 3e 88 f7 d8 bd 3b be 7e 3d
       0.029099248 0.29547697 -0.10594088 0.062193137
000380 93 ec 38 bc 46 ce 0a bb 7f 66 9b 3d cd fb 2d 3e
       -0.011286872 -0.0021180077 0.07587909 0.16990586
000390 6c c7 88 bd 0b 6e fc 3d ca 3e 05 3e 6d f2 b7 3d
       -0.06678662 0.123256765 0.13012233 0.08981786
0003a0 0f 44 3f bc 0a f5 22 3e 85 7f 37 bd a4 5f 3c 3e
       -0.011673941 0.15913787 -0.044799346 0.18395859
0003b0 51 a0 1b 3e 2a f8 85 bd 84 8b 6c bd 10 ee 8a 3d
       0.15197875 -0.06541474 -0.05775024 0.06783688
0003c0 42 83 42 bd 99 f2 46 3d a4 1a 4b bd 6e e7 ef bc
       -0.04748846 0.048571203 -0.049585953 -0.029285159
0003d0 24 70 9a 3d 64 2c 8c 3d 6b 63 1f 3e 9d 53 f8 bd
       0.075409204 0.06844404 0.15565269 -0.12125323
0003e0 42 49 d5 bd 81 4b 09 be 72 9a 57 3c 50 e7 95 bd
       -0.104143634 -0.13407709 0.013159381 -0.0731951
0003f0 ad 0f 9e 3b 7d 14 08 be 58 68 a4 3d 97 23 c3 3d
       0.004823646 -0.13289066 0.080277145 0.095282726

bias f4 [48]
000000 72 44 76 3d 72 8c b6 3d b8 d0 63 3c 41 c4 91 3d
       0.06012387 0.089135066 0.013904743 0.071175106
000010 14 08 9b 3d 37 9f 9d 3d 5f dd 3f 3d 63 08 83 3d
       0.075699 0.076963834 0.046841975 0.06398084
000020 35 4c 98 3c 2a 87 11 3d 79 02 b4 3d ce 66 0b 3d
       0.018591026 0.035529293 0.08789534 0.03403359
000030 ad 9e 68 3d 41 25 3e 3d da b8 ae 3d 5a 4f c7 3b
       0.05679195 0.046422247 0.085313514 0.0060824575
000040 0b a5 b2 3d 91 ba c0 bc 97 07 ad bd c7 fc 8d bc
       0.08722886 -0.023526462 -0.08448713 -0.017332448
000050 44 e1 b1 bc d1 8e 92 3d 5e f5 8f 3d f2 0b 6b 3d
       -0.02171386 0.07156146 0.07029222 0.05738444
000060 da 4a 90 3d 60 4f 16 3d 00 66 90 bd 90 de d2 3c
       0.07045527 0.03669679 -0.07050705 0.025740892
000070 8c 4b d6 3c a9 48 c6 3b ba 5e 9d 3c d9 b1 c0 bc
       0.02615907 0.0060511422 0.019210208 -0.023522304
000080 9b 36 04 bd 65 bf 5e b9 68 53 78 3d 00 0c 84 3b
       -0.03227864 -0.0002124287 0.060626417 0.004029751
000090 4c 00 89 bd de a4 64 3c 0b 5b 45 3d 42 94 26 3d
       -0.0668951 0.013955323 0.04818253 0.040668733
0000a0 55 03 3e 3d 86 07 1f bd f3 21 40 3d b8 4c 60 3d
       0.046389896 -0.038825534 0.046907376 0.054760665
0000b0 d9 a8 9c 3d 61 a5 a6 3b 2e 62 57 bb da a6 77 3c
       0.07649393 0.0050856327 -0.0032864916 0.015115464

weight f4 [24, 48, 3, 3]
000000 27 1a 0a bd 40 27 19 bc 03 5b fe bd 86 c3 97 3d
       -0.033716347 -0.009347737 -0.12419703 0.0741034
000010 1f 56 1f bc 36 59 42 3d d0 94 ac 3d 48 3e ea 3d
       -0.009725123 0.04744836 0.08426821 0.114376605
000020 0e 88 e6 bc ff f8 91 bd ea 28 a6 3d ef 20 23 3d
       -0.028141048 -0.0712757 0.081132725 0.03982633
000030 25 b9 20 3e 1a 2c 90 3d 7b f6 b3 bc 2e 4a c9 3b
       0.15695627 0.07039662 -0.021968117 0.006142876
000040 82 11 2e bc 67 bf 18 bd 5a 09 bb bb ad 5f 8c bd
       -0.010624291 -0.03729191 -0.005707902 -0.06854186
000050 ea 87 e1 bc fa 13 56 3d f9 c0 29 3c 61 90 8a bb
       -0.02753063 0.052265145 0.01036095 -0.004228637
000060 5b 41 44 3d 59 e5 c7 3c 38 54 8c 3d 2a f6 ad 3d
       0.04791389 0.024401354 0.06852001 0.08494218
000070 bf b4 dd bb 3b 3e 41 3c 74 39 31 3d 43 7e af 3d
       -0.0067659314 0.011794622 0.043267682 0.085690044
000080 f5 d3 48 bd 38 7b 03 3b b2 c0 63 3c e5 4d 08 3e
       -0.049030263 0.0020062458 0.013900923 0.13310964
000090 be a5 85 3d 3d fc d0 3d 6b 92 9a 3d ad 38 e4 bc
       0.065257534 0.10204361 0.07547458 -0.027859056
0000a0 c4 42 3c bb 49 c2 0c be 2f ba 91 bc bb 51 48 3d
       -0.002872632 -0.13745989 -0.017788975 0.04890607
0000b0 c2 8f 07 3d 89 16 15 bc 85 69 1a 3e 79 f3 30 3d
       0.033096083 -0.009099611 0.15079315 0.043200944
0000c0 1c a4 5e 3d fb 0a 1b 3d ee 45 d1 bd ea 26 4a bc
       0.054355726 0.03785227 -0.10218416 -0.012338379
0000d0 c2 95 8f 3d 7a f4 bc 3d 33 06 1a 3d 49 7f e0 3c
       0.07010986 0.09226318 0.03760357 0.027404444
0000e0 81 6d 2b 3c 3f dc 85 3d c8 fd f4 3c dd c2 ad 3c
       0.0104631195 0.06536149 0.029906169 0.021211082
0000f0 e2 d9 b6 3d 11 2c cf 3d ab 85 a0 3d 20 b2 56 bd
       0.089282766 0.10115827 0.07837995 -0.052415967
000100 2d 00 6b bc ac ac 6b 3b 7b 48 94 3d e2 a0 d0 3d
       -0.014343304 0.0035961075 0.07240387 0.10186936
000110 7a 8d 3b 3e ed 07 72 3d e3 a3 4f bd 30 6f f7 3d
       0.18315688 0.05908959 -0.050693404 0.12081754
000120 18 da 42 bd 15 54 93 3b 66 dc f9 3a e8 47 37 bb
       -0.04757127 0.0044961073 0.0019062876 -0.0027966443
000130 a9 9e d3 3c 1a 3f 53 be e1 e9 29 3c c1 97 dc 3d
       0.025832491 -0.2062954 0.0103707025 0.10771132
000140 91 c6 43 bc 2e d0 f2 3d 78 ca c9 3c c2 60 ae bd
       -0.011949197 0.118561134 0.024632677 -0.08514549
000150 b8 ae eb bc 12 09 10 be 6b 76 1f 3d de 34 90 bc
       -0.028769836 -0.1406596 0.03893129 -0.017603334
000160 b0 40 ca bc 63 7f 04 3e 87 44 ef bc a3 a1 56 3e
       -0.024689049 0.12939219 -0.029207481 0.20960097
000170 8f 59 51 3d 9f ec 4f 3d e2 49 35 3d ef f6 b4 bd
       0.0511108 0.05076277 0.044259913 -0.08836161
000180 bc 52 7d 3c 7c b9 3d bc 53 32 1c 3c 7f 00 99 3d
       0.01546162 -0.011579867 0.009533483 0.07470798
000190 b7 77 c5 bd 17 fb a8 bd 40 99 13 3d 23 b9 7f bd
       -0.096419744 -0.082510166 0.036034822 -0.06243242
0001a0 fc 06 82 bd 5f 25 17 bc de b9 e1 3d 5a 49 52 3d
       -0.063489884 -0.009225219 0.110217795 0.051339485
0001b0 b2 32 f7 3d 4d ce 43 bc 74 27 68 bc cf 8d e1 3c
       0.12070216 -0.011951041 -0.014169563 0.02753344
0001c0 25 cb be 3d bc c0 8d bd 68 0f 27 3e b6 89 88 3b
       0.093160905 -0.06921527 0.16314471 0.004166807
0001d0 81 99 77 3d ba 75 12 3e 91 97 c6 3c 28 79 5a bd
       0.060449127 0.14302722 0.024242194 -0.0533382
0001e0 4f 1e 62 bc 6c 55 a0 bc 2f f0 2f 3e 2d 6d ea 3c
       -0.013801171 -0.019571982 0.17181467 0.028616512
0001f0 40 1a d0 ba a8 49 08 ba 74 13 4b 3d 0a a5 0f 3e
       -0.0015876964 -0.0005198964 0.0495791 0.14027801
000200 c5 9c f2 bc b1 34 14 bd 48 90 91 3d 39 50 4b 3c
       -0.02961577 -0.036183063 0.071075976 0.012409263
000210 3d 54 67 3d 91 61 4f 3d 93 8e e2 3c f6 52 a7 bd
       0.05647682 0.050630156 0.027655875 -0.081701204
000220 5f 4e c2 3b 7b b7 83 bd 15 10 4c 3d 30 a0 12 3e
       0.0059297527 -0.064314805 0.049820025 0.14318919
000230 07 1e 14 3d 2c 49 00 bd 25 0c 8e bc 2a 63 f7 bc
       0.03616145 -0.031319782 -0.017339775 -0.030198652
000240 7e 6a 1c 3e 1b 30 89 bb 24 8c c0 3c 4c d0 a5 bc
       0.15274999 -0.004186643 0.023504324 -0.020240925
000250 4d 86 99 bc 41 11 b4 bd 5b 21 95 3d 0d 3a a7 bc
       -0.018740797 -0.087923534 0.07281753 -0.020413423
000260 9a 1f 14 bd 37 bd c4 3c 5c 55 6c 3d d3 ea 12 3d
       -0.03616295 0.024016006 0.057698593 0.035868477
000270 d3 1c 53 bd 1f 39 95 3b 48 42 9c 3b 76 6a 8a 3d
       -0.05154116 0.0045539285 0.0047686435 0.06758587
000280 6c 03 28 3d 81 9c 6a 3c bb 99 21 3c 5a 11 89 3d
       0.04101889 0.01431954 0.009863312 0.06692763
000290 4a 0b 38 bd d2 e0 00 bc 75 db d9 3d a9 e8 7c bd
       -0.04493264 -0.007866101 0.10637561 -0.06174532
0002a0 9e 6d c4 3c 06 82 78 bd b7 ca c7 bd 5b fd 7f bd
       0.02397805 -0.060670875 -0.09755462 -0.062497478
0002b0 4a 87 22 3d 7d 19 d5 bd a9 23 4a bd bb e0 9b 3d
       0.039679803 -0.10405252 -0.049350414 0.07611223
0002c0 fa 2c e1 bc c6 47 2a 3d 9f 5f 1b 3d 9e 66 5d bd
       -0.027487267 0.041572355 0.03793299 -0.05405294
0002d0 5d 48 e4 bb 3e 4c ef bc f6 1b a2 bb b8 4d d5 3c
       -0.006966634 -0.02921116 -0.004947181 0.026038036
0002e0 14 6e 3a 3c 1b 5e 8e 3d 52 46 82 bc 10 c3 2f 3c
       0.011378784 0.06951543 -0.015902672 0.010727659
0002f0 f4 35 1f 3e d4 46 7a 3d 0f 83 92 ba 91 ef 88 3c
       0.15547925 0.061102703 -0.0011177975 0.016715797
000300 79 9a 00 3e 3c 6a 65 bd 4f 47 de bc c4 6d 00 be
       0.12558927 -0.056009516 -0.027133612 -0.12541872
000310 95 cb bf 3d a4 eb 39 be 3b 76 b4 3d 87 f0 1f 3d
       0.09365002 -0.18156296 0.08811613 0.039047744
000320 43 6d de 3d 96 f5 ec 3b e6 7e 65 bd d8 51 cc 3d
       0.10860684 0.0072314246 -0.056029223 0.09976548
000330 cf fe d8 bd 19 1a 0a 3d 72 6d 1f 3e 5d 97 13 3e
       -0.10595476 0.033716295 0.15569094 0.1441321
000340 70 30 f9 3d 4a 34 c8 3c 8f b5 a5 3b b2 59 88 3c
       0.12167442 0.024438996 0.005057044 0.016644333
000350 69 9f 7e bd 92 73 63 3b f4 c0 cb 3d 43 5b 8a 3c
       -0.062163744 0.0034706336 0.09948912 0.01688922
000360 c8 d5 40 bc 3a 67 ac 3d 26 f7 9c bd 25 be bb 3d
       -0.011769719 0.084181264 -0.07664327 0.091671266
000370 0e 9b 99 3d 45 09 c4 bd fd bf 2d 39 81 69 45 3c
       0.075002775 -0.095720805 0.00016570087 0.01204908
000380 61 af 9c bd e1 28 38 3d aa f3 96 bd d9 5e 26 3c
       -0.07650638 0.04496086 -0.07370694 0.010154449
000390 3a f3 d4 bd c5 5a 24 3e 8e 49 82 3d 2a 8a 4a 3d
       -0.10397954 0.16050251 0.06361686 0.04944817
0003a0 87 41 99 3d 53 e1 da 3d 0e 83 1e 3d 9b 49 9d bd
       0.074832015 0.106875084 0.038699202 -0.07680055
0003b0 45 27 06 3c da 21 41 3d d6 db a3 bd 1b 8b f7 bd
       0.0081880735 0.047151424 -0.08000915 -0.12087079
0003c0 77 8d 9b bd ff 3b 3f bd 19 5b 14 bd ba 52 2f 3d
       -0.07595342 -0.046688076 -0.03621969 0.042803504
0003d0 6a 95 ed 3c 28 be 4e bd 23 7c 3c 3d e2 d3 63 3d
       0.02900191 -0.050474316 0.046016824 0.05562199
0003e0 83 62 5c bd dd d5 ee 3d 79 4f 4e 3d b8 bf 39 3d
       -0.053804886 0.11661885 0.05036876 0.045348853
0003f0 73 b6 85 bc 64 18 a0 3c 5c 81 3a bc 00 5e 08 be
       -0.01632235 0.01954288 -0.011383381 -0.13317108

bias f4 [24]
000000 a2 43 34 3d 37 1d 47 bc e9 6c da 3c 62 f6 b1 bc
       0.044009812 -0.012152961 0.02666326 -0.02172393
000010 a2 79 85 bd 19 c1 78 bc 93 57 65 bc 80 04 77 bb
       -0.0651734 -0.015182757 -0.01399793 -0.0037691891
000020 f6 1e 91 bc 33 08 12 3b c2 c1 75 3d 61 26 16 bd
       -0.017714959 0.002228272 0.059999235 -0.036657695
000030 ee c1 c8 bc 62 0a 27 3b 56 92 81 3c d5 91 4a bc
       -0.024506535 0.0025488366 0.015816849 -0.012363871
000040 eb d6 ba 3d 89 c3 cf bb a6 5f 60 3c 20 2b a8 bc
       0.091230236 -0.0063404483 0.013694679 -0.020528376
000050 50 ea 94 3d bb 5b 3f bc a6 12 4b bc bf 3d c0 bc
       0.07271254 -0.011679585 -0.012394583 -0.023466943

weight f4 [96, 24, 1, 1]
000000 4e 0a f8 bd 1e 99 3e 3e bb d8 88 3e c9 5f fe be
       -0.121113405 0.18613097 0.26727852 -0.49682453
000010 2a 22 5d bd d2 8c 18 bd 5a f5 62 3e 58 d7 5e 3e
       -0.05398766 -0.03724367 0.22163907 0.21761835
000020 0c 9d ff be 6f f6 4a bd 1b 82 05 3d 38 c4 10 be
       -0.49924505 -0.049551424 0.03259478 -0.14137352
000030 44 e4 0b 3e 55 1a 7d bd 74 bb d1 bd f5 0d 10 bf
       0.13661295 -0.06179269 -0.10240832 -0.56271297
000040 40 9e 2b 3e 24 96 27 bd 3a 53 03 3e 7c 50 b9 bd
       0.16759586 -0.04091467 0.12824717 -0.09048554
000050 2e 3f 07 3f 84 80 59 be 20 45 61 be 1a 8f 21 3e
       0.5283078 -0.21240431 -0.21999025 0.15777245
000060 a3 3f f9 bd 08 b1 3c 3e ed e2 87 3e db 99 fe be
       -0.12170341 0.18426907 0.26540318 -0.49726757
000070 d8 f5 4c bd bb ca 2e bd fd 0d 60 3e 2e 8a 5b 3e
       -0.050039142 -0.042673808 0.21880336 0.2143943
000080 f1 81 00 bf b0 97 5a bd e1 b1 f6 3c 0b 3e 12 be
       -0.50198275 -0.053367317 0.030114116 -0.1428148
000090 a2 75 0b 3e 33 9d 89 bd 74 4e da bd 62 5e 10 bf
       0.13619092 -0.067194365 -0.10659495 -0.56394017
0000a0 51 59 23 3e 8e 55 30 bd 23 97 01 3e bd 56 ba bd
       0.1595204 -0.04305034 0.1265531 -0.09098575
0000b0 3f 96 07 3f 94 a5 5c be 50 0b 64 be 51 04 21 3e
       0.5296363 -0.21547538 -0.2226994 0.15724303
0000c0 b8 a2 f7 bd 58 df 3e 3e c9 e6 84 3e 36 9e fd be
       -0.12091583 0.18639886 0.25957325 -0.49534768
0000d0 20 be 57 bd df 15 2c bd 36 e7 61 3e b3 0b 5c 3e
       -0.05267155 -0.042013045 0.22060856 0.21488838
0000e0 12 eb ff be 78 8e 4a bd 5a 5f fe 3c 02 8f 0e be
       -0.49984032 -0.049452275 0.031051327 -0.1392174
0000f0 55 28 0f 3e 3b 9a 71 bd 8a 02 d9 bd 88 e9 0f bf
       0.13980229 -0.058984976 -0.105961874 -0.56215715
000100 e6 37 1a 3e b7 57 23 bd f0 cd d8 3d b6 07 b2 bd
       0.15060386 -0.039878573 0.105861545 -0.08692877
000110 2f 76 08 3f f7 4e 56 be bf fc 60 be 8b f5 22 3e
       0.53305334 -0.2092856 -0.21971415 0.1591398
000120 39 f4 fa bd d6 d2 3c 3e 08 0e 86 3e d1 70 fd be
       -0.12253613 0.18439803 0.2618258 -0.49500135
000130 d4 a7 4b bd 05 bb 31 bd cc 42 60 3e f6 4e 5c 3e
       -0.0497206 -0.043391246 0.21900481 0.21514496
000140 0c eb ff be 27 d4 56 bd 74 28 e5 3c c4 3b 0d be
       -0.49984014 -0.052448418 0.027973391 -0.1379233
000150 ed 83 0d 3e 89 15 7e bd 11 bd d6 bd 04 2d 10 bf
       0.13819857 -0.062032256 -0.1048528 -0.5631869
000160 3b fc 11 3e ae c1 2a bd c1 b3 c0 3d 87 5b b4 bd
       0.14256375 -0.041688614 0.09409285 -0.0880652
000170 d8 bd 07 3f 42 d2 56 be 1e 47 62 be 9f c0 20 3e
       0.53024054 -0.20978644 -0.22097442 0.15698479
000180 24 5d 75 be e9 71 a2 bd e4 ff 04 3d 8d a5 48 3e
       -0.23961312 -0.07931883 0.0324706 0.19594403
000190 a5 d7 e9 3e 89 a6 52 bd 60 c9 e8 bc a1 27 61 3e
       0.45672336 -0.05142835 -0.028416336 0.21987773
0001a0 c1 7c 73 3d bf c7 b0 3e b2 91 f4 bd a9 6f 11 bf
       0.059445146 0.34527394 -0.11941852 -0.56811005
0001b0 43 28 38 3f 74 ae ab bb 56 b5 7e 3d 9b e3 0d 3f
       0.71936435 -0.0052393023 0.062184654 0.55425423
0001c0 2d fd 09 be b1 0f 0e 3f 8d 2d b8 bd ea 39 ac be
       -0.13475485 0.55492693 -0.08993063 -0.33637935
0001d0 4c 9a e5 be 7d 0b c9 be ac 2a be bd 2b 37 96 3e
       -0.44844282 -0.39266577 -0.09285483 0.29338965
0001e0 49 b7 7d be 1d 50 a2 bd c1 6e 05 3d ef 65 48 3e
       -0.24776949 -0.07925437 0.032576326 0.19570135
0001f0 90 54 e8 3e 76 f8 57 bd de 4f e4 bc f9 8a 60 3e
       0.45377016 -0.052727185 -0.027870115 0.21928014
000200 95 0a 72 3d 2e c9 ae 3e b2 d6 f9 bd 41 f5 10 bf
       0.059092123 0.34137863 -0.12199153 -0.5662423
000210 28 f1 37 3f 4f 21 cf bb e5 d2 74 3d 83 fc 0d 3f
       0.7185235 -0.0063211094 0.059771437 0.5546343
000220 8f f7 03 be 1b 11 0e 3f 8b a1 b6 bd ad 4b ac be
       -0.12887405 0.5549485 -0.089175306 -0.33651486
000230 a5 f6 e8 be e3 62 c9 be e2 b5 be bd 57 2b 96 3e
       -0.45500675 -0.39333257 -0.09312035 0.2932994
000240 64 17 74 be 3d 20 a5 bd d7 0e 0c 3d a0 89 48 3e
       -0.23837048 -0.080627896 0.03419384 0.1958375
000250 08 4c eb 3e 34 9c 55 bd 3b 08 df bc 3f 5c 5e 3e
       0.45956445 -0.05215092 -0.027225604 0.21714877
000260 12 fc 6c 3d fd df b0 3e 86 94 f4 bd 61 45 11 bf
       0.05785758 0.3454589 -0.11942391 -0.5674649
000270 f8 36 38 3f da 10 cc bb 9c 1e 63 3d 5e cd 0d 3f
       0.71958876 -0.006227595 0.055449113 0.5539149
000280 ef 81 09 be f0 09 0e 3f 05 71 2a bd ce 2e ac be
       -0.13428472 0.55483913 -0.04161169 -0.3362946
000290 9a 41 e7 be e9 da c8 be ba 33 bf bd 15 48 96 3e
       -0.45167238 -0.39229515 -0.09336038 0.2935187
0002a0 72 bc 79 be d0 a8 a5 bd 21 26 0a 3d 57 35 48 3e
       -0.24388292 -0.08088839 0.03372777 0.19551598
0002b0 dc 47 ea 3e 45 08 5b bd 85 29 d4 bc eb 80 5e 3e
       0.4575795 -0.053474683 -0.025898704 0.21728866
0002c0 c4 a2 6c 3d 05 1c af 3e 39 e6 fc bd 8f 95 10 bf
       0.057772413 0.34201065 -0.12348599 -0.5647821
0002d0 bd 10 38 3f b9 5e d9 bb 76 04 5d 3d b1 e2 0d 3f
       0.7190054 -0.0066336063 0.053959332 0.5542403
0002e0 91 e3 0a be 28 f7 0d 3f 20 1e 4d bd 5c 75 ac be
       -0.13563372 0.55455256 -0.050077558 -0.33683288
0002f0 61 bd eb be 78 68 c9 be 0e bf bf bd d2 ef 95 3e
       -0.46042922 -0.39337516 -0.09362613 0.2928453
000300 6f 20 0c 3e c2 24 49 3e f9 b4 65 be 80 19 29 be
       0.13684247 0.19642928 -0.22432317 -0.16513634
000310 a8 a6 59 be 83 c3 8c be ea a2 36 3f 54 30 88 3e
       -0.2125498 -0.27492914 0.7134234 0.2659937
000320 3a 05 55 bd 8e 9b 32 bd 47 af cf bd 03 64 45 3e
       -0.052006938 -0.04360538 -0.101408534 0.19276433
000330 6a ba 90 be 09 83 12 be 29 b4 f7 3c b5 b0 cf bd
       -0.28267223 -0.14307798 0.030237274 -0.10141126
000340 b8 96 6c be 63 09 83 3e 82 59 41 3e 91 23 8e be
       -0.2310437 0.255931 0.18881801 -0.2776151
000350 39 b8 d9 be 6c ff de 3d f2 dc c6 3e 30 3f e7 bd
       -0.42523363 0.108885616 0.38840443 -0.11291349
000360 34 5b 0c 3e b9 6c 4b 3e 80 ee 64 be ab 4d 29 be
       0.13706666 0.19865693 -0.22356606 -0.16533534
000370 d7 8e 5c be 2e 23 8e be 7c 4c 36 3f 2f bd 86 3e
       -0.21538864 -0.27761215 0.71210456 0.2631621
000380 3a 75 4f bd 3d 1c 35 bd 98 ef d5 bd 04 61 44 3e
       -0.050648905 -0.044216383 -0.104460895 0.19177634
000390 9c 32 91 be ff 18 13 be b4 71 f7 3c 60 09 d5 bd
       -0.28358924 -0.14365004 0.030205585 -0.10402179
0003a0 6d c5 73 be fe 7e 82 3e d2 7c 42 3e 26 0d 8d be
       -0.2380578 0.25487512 0.18992928 -0.27549094
0003b0 b7 56 db be e8 12 de 3d c7 60 c6 3e 51 b1 e8 bd
       -0.42839596 0.1084345 0.3874571 -0.113619454
0003c0 4d ce 09 3e ed 8b 4e 3e a3 11 68 be e1 2a 27 be
       0.13457604 0.20170565 -0.22662978 -0.16324951
0003d0 fa f7 5b be 55 8e 8c be 41 eb 35 3f 40 7d 87 3e
       -0.21481314 -0.2745234 0.71062094 0.26462746
0003e0 f3 d6 5b bd 7a 48 2a bd 57 8e d6 bd 9a 01 48 3e
       -0.05367179 -0.041573025 -0.10476368 0.19531861
0003f0 d0 61 8e be df 5b 12 be c9 c5 00 3d 7f 9b d2 bd
       -0.27809 -0.14292859 0.031438623 -0.10283565

bias f4 [96]
000000 ea 80 37 3d 61 b0 3b 3d ea 67 22 3d 28 8a 18 3d
       0.044800676 0.045822505 0.03964988 0.03724113
000010 a0 da 52 bc 18 67 70 bc b9 a0 0e bc e5 b4 18 bc
       -0.012869507 -0.014673017 -0.008705311 -0.009320472
000020 cc d4 64 3b 0a c8 57 b6 91 68 ca b9 f0 ff 56 bb
       0.0034916876 -3.2153935e-06 -0.0003860635 -0.003280636
000030 63 a5 88 3d f9 32 85 3d ce 09 86 3d 70 71 84 3d
       0.0667217 0.06503863 0.06544839 0.06466949
000040 d7 92 4b bc 76 57 55 bc 9d 83 5a bc b4 c4 78 bc
       -0.012425146 -0.013021341 -0.013337043 -0.015183616
000050 f0 35 c1 3d c1 d6 c0 3d 2b 5d c4 3d 70 b9 c3 3d
       0.09434116 0.09415961 0.09588083 0.09556854
000060 c2 5d 97 bd dc a6 84 bd 58 76 84 bd cb 20 6d bd
       -0.0739093 -0.064771384 -0.06467885 -0.057892602
000070 8a 9b e3 bb c8 14 1f bc 52 9f 03 3b a3 0a b9 39
       -0.006946032 -0.0097095445 0.0020083976 0.00035293875
000080 36 42 50 3d ce 27 4f 3d 37 ca 56 3d a1 53 53 3d
       0.050844394 0.05057507 0.05243894 0.051593427
000090 73 0c 16 3d 12 e8 12 3d 18 b3 1a 3d 29 2c 17 3d
       0.036632966 0.03586585 0.037768453 0.03690735
0000a0 f1 8d f5 bc 4e 54 d3 bc 65 be 1a bc 3c 1c ab bc
       -0.02997491 -0.025797036 -0.009444808 -0.020887487
0000b0 37 d0 86 3d 0e 48 76 3d 86 cc 84 3d a8 4a 65 3d
       0.065826826 0.06012731 0.06484322 0.0559794
0000c0 5a 7a 0f 3c d8 8a a0 3b 8a 84 ee 3b 66 8c 28 3b
       0.008757198 0.004899364 0.0072789835 0.002571845
0000d0 df 5e 81 3c 14 44 bd bb b5 60 c0 3c 48 4d 14 3c
       0.015792308 -0.005775938 0.023483614 0.009051628
0000e0 68 76 3c 3d 43 4d 4e 3d a9 5f 24 3d a2 18 2f 3d
       0.04601136 0.05036665 0.04013029 0.0427481
0000f0 59 b5 b0 3c ab dd aa 3c 54 8f 93 3c 61 b7 99 3c
       0.021570848 0.020857653 0.01801268 0.0187642
000100 ed 68 5b 3d fd 6c 64 3d 5a 49 62 3d 78 2b 66 3d
       0.053566862 0.055768 0.055245735 0.0561938
000110 6a a4 65 bc 09 9c 33 bc a4 d1 a6 bc ce 03 86 bc
       -0.01401625 -0.010962495 -0.020363636 -0.016359236
000120 34 6e fb 3c 7a 58 d7 3c ec 28 de 3c f1 d1 ba 3c
       0.030692197 0.026287306 0.027119122 0.022805186
000130 11 c9 89 3d 28 aa 9f 3d 66 41 90 3d b5 8e a0 3d
       0.067278035 0.077961266 0.07043724 0.07839719
000140 df 2c de 3a 97 ef c0 b8 dd f0 8f 3b eb 0c 3f 3b
       0.0016950628 -9.1999005e-05 0.004392727 0.0029151987
000150 d3 76 f6 bc b4 7c f2 bc 78 58 71 bc d0 14 80 bc
       -0.030085957 -0.029600479 -0.014730565 -0.015634924
000160 ec 40 85 bd 65 fc 8f bd 70 89 a9 bd 44 87 b2 bd
       -0.065065235 -0.07030562 -0.08278167 -0.08717206
000170 cc 26 6b 3d 41 a8 25 3d 4f 42 ee 3c a0 1a 60 3c
       0.057410046 0.040443663 0.029084353 0.013678223

weight f4 [27, 27, 3, 3]
000000 db 52 e6 39 5b a8 37 3d b8 49 34 3c 0d a1 62 3d
       0.0004393075 0.04483829 0.011003904 0.05532937
000010 a4 d2 83 bd 50 32 f2 bc 39 23 c8 3d ef 06 4c 3d
       -0.06436661 -0.029565006 0.09772343 0.0498113
000020 d2 3f d7 3d d5 64 39 3d 1a d0 28 bd a0 9d 86 3d
       0.1051022 0.045262177 -0.041214086 0.06573033
000030 af b8 cd bd b1 90 97 3c 25 6d 87 bd 8a 77 3c bd
       -0.10044991 0.018501611 -0.066126145 -0.04601244
000040 5d a3 17 be d1 34 21 bd 45 0b 15 3e 29 6b 33 3c
       -0.14808412 -0.03935701 0.1455508 0.010950842
000050 e5 09 13 3e 6a f7 29 bd b9 5a e0 3d 6f 53 11 bd
       0.14359243 -0.041495718 0.10954804 -0.03547996
000060 10 eb 49 3d 8b 3e 48 bb 40 ae 57 be 81 46 ee 3d
       0.04929644 -0.0030554857 -0.21062565 0.11634541
000070 76 bc 8e 3d 17 e1 fb bc bf d9 a5 ba 60 d3 ce 3d
       0.0696954 -0.03074698 -0.0012653394 0.1009891
000080 c6 61 89 bd 1f 80 90 3d 06 88 95 3d f9 5e 33 3d
       -0.06708102 0.07055687 0.07301335 0.043791745
000090 28 63 81 3d dc ac 0e 3e d3 ed 21 bc c9 46 3d bd
       0.06317741 0.13933128 -0.009883362 -0.046210084
0000a0 56 1d db bd 2b 16 83 3d ab 42 b9 bc 1f f5 15 3e
       -0.10698955 0.064007126 -0.022614798 0.14644288
0000b0 96 f2 0e bd 84 2d b1 bd b4 40 85 bc c6 b1 00 be
       -0.034899317 -0.086512595 -0.016266204 -0.12567815
0000c0 43 8b c1 3c f5 74 6a bd af b2 01 3e 53 04 e1 bd
       0.023625975 -0.057240445 0.12665819 -0.10987153
0000d0 13 b2 d2 bb 76 2b f5 3d 33 ce bf bd 88 16 95 3c
       -0.0064299195 0.1197118 -0.09365501 0.01819922
0000e0 34 9e a7 3d 1d 69 d3 3c 7a 43 5c 3e e1 ff f2 bd
       0.08184472 0.025806958 0.21510115 -0.11865211
0000f0 26 7c 83 bd b5 2a ed 3d b6 f1 fa 3c 6a 2d 03 be
       -0.06420164 0.11580411 0.030632835 -0.12810293
000100 29 a9 fa 3d b2 3d 7e bd 5e e6 ec bd d8 e2 46 3d
       0.12239296 -0.062070556 -0.115673766 0.04855618
000110 8d df c9 bd 08 00 c1 3d 6d cd 13 be 8a 0f 67 bd
       -0.09857092 0.09423834 -0.14433832 -0.056411304
000120 98 bc 9a 3d 5c fb 6a bd a7 60 b1 bd 01 63 82 bd
       0.07555503 -0.05736862 -0.08661013 -0.0636654
000130 7d 1f 7c 3d 59 07 cd bd b8 15 ab bd bb 2b c4 bd
       0.061553467 -0.10011167 -0.08353752 -0.095786534
000140 d7 21 ea bc 2f 87 80 3d 96 64 ef 3d 2a fd 47 bd
       -0.02858059 0.06275784 0.11689107 -0.04882542
000150 0f 59 7d bd e8 e4 52 bd 95 1d 47 3d d5 ab 8b bc
       -0.06185251 -0.051487833 0.048612196 -0.01704971
000160 83 f8 d6 3d 42 80 eb bd 82 56 7f bd 95 ec 9f 3d
       0.104966186 -0.114990726 -0.06233836 0.07808796
000170 58 0c 31 3d 56 ca 00 bd 38 4f 4b bd c2 77 5d bd
       0.043224663 -0.031442963 -0.049636096 -0.054069288
000180 76 7e cf bd 56 ca a5 ba 2e 20 f9 3c 20 9e c6 3d
       -0.101315424 -0.0012648802 0.030410852 0.09698129
000190 d1 6e 9e bd 2f 18 89 3d 63 dc a9 3d 82 f8 42 bd
       -0.0773598 0.06694066 0.082939886 -0.047600277
0001a0 45 18 ac 3d 08 d6 30 3b 31 9b 0a 3a 95 e0 06 3d
       0.084030665 0.0026983041 0.00052874075 0.032929022
0001b0 03 9e 05 3e 9e 3b ff bd 39 7c 2c 3e 3a fa d7 3c
       0.13048558 -0.12462543 0.16844262 0.026364435
0001c0 f1 4a db bb 05 8e b0 bc 48 23 1d bd 8e 9f 45 be
       -0.0066922833 -0.021552095 -0.038363725 -0.19299147
0001d0 29 36 c7 bb 54 74 4f 3d 6b 6a 9f 3b b6 a4 25 3e
       -0.0060794544 0.05064805 0.004864981 0.16176113
0001e0 1e 30 b5 bc 10 4f 45 3e 68 c0 37 3d 52 92 26 3e
       -0.02211767 0.19268441 0.044861227 0.16266754
0001f0 b1 a6 35 bd a1 49 18 3d d9 02 23 bd ff b3 aa bd
       -0.044348422 0.037179593 -0.039797638 -0.08335113
000200 fa 97 17 bb 9c d8 7b 3c 87 fe 86 3d 0d ac 4b 3b
       -0.0023131357 0.015371468 0.06591516 0.0031077892
000210 ac cd 55 be 08 f7 c9 3d cd 86 16 3c 5b f5 cc 3c
       -0.20879239 0.098615706 0.009187412 0.025019338
000220 c4 64 7d bd bd ae ff 3d 08 2f 28 3e 86 c7 14 3d
       -0.061863676 0.124845006 0.16424191 0.036323093
000230 24 5b 56 bd a7 42 29 bd 53 eb 96 3c 26 9c f8 3b
       -0.052333012 -0.04132333 0.018422758 0.0075869737
000240 01 5c fe 3c 45 fc a1 3c b1 ba 92 bc d8 fa 34 bd
       0.03104973 0.019773612 -0.017911287 -0.044184536
000250 cd 5f 63 bd 5f a1 7f bc b4 69 27 bd 29 ff 03 3e
       -0.055511285 -0.015602439 -0.04087229 0.12890305
000260 94 ee d5 bd 4f 3c b6 bc d7 41 01 bd ef 47 81 be
       -0.10445896 -0.022245554 -0.03155693 -0.25250193
000270 a2 a3 2b 3d 7b a8 d4 bd 8e eb 70 bd f4 11 a3 bc
       0.0419041 -0.103836976 -0.058818392 -0.019906022
000280 a3 6e 12 3e ff 6c 70 3d 8e 6f a0 3d 5e e1 00 be
       0.14300017 0.058697697 0.07833777 -0.12585971
000290 ea e1 c8 bd 70 ed 05 be 95 9b 7b 3d 65 83 b5 3d
       -0.09808715 -0.13078856 0.06142767 0.08862952
0002a0 ee 0f ee bd 12 8b 01 3d 5f 60 4b 3b 25 eb 52 bd
       -0.11624132 0.03162677 0.0031032783 -0.051493783
0002b0 8d 8c 17 3e cc e9 a8 3e 54 24 ac 3d b1 47 37 ba
       0.1479971 0.32990873 0.084053665 -0.0006991579
0002c0 89 c1 2f 3d 17 47 27 3e 5b 86 f8 bc 26 ee 1e 3b
       0.04290918 0.16335712 -0.030337503 0.0024250834
0002d0 ab 58 2e be 0e de 0f bd 88 c6 2f bd 79 21 2c 3d
       -0.17026012 -0.035123877 -0.042913944 0.04202411
0002e0 72 53 06 3e 89 fe 37 3e 6f ea 6b bd 5b 05 6a 3d
       0.1311777 0.17968191 -0.05759662 0.057134014
0002f0 b8 de f3 3d 18 57 e6 3d f2 0a 37 bd b1 4c 2b 3e
       0.119077146 0.112470806 -0.044688173 0.16728474
000300 97 4a 3c bc 01 f9 39 bd 56 e9 d5 bd 03 bf 7a 3d
       -0.011492393 -0.045403484 -0.10444896 0.06121732
000310 6b d2 b2 bd 14 cc 22 bc f9 14 4d 3d 5e 36 a6 3c
       -0.0873154 -0.009936351 0.05006883 0.020289596
000320 f9 2b 64 bd 5b 4a a9 bd 55 61 ec bb 23 cc be 3d
       -0.055705998 -0.08266135 -0.0072137513 0.0931628
000330 c2 99 b5 3c 4a 67 b1 bd e6 dc 67 3d 9a 8e 82 bd
       0.022168044 -0.08662279 0.05660715 -0.06374855
000340 58 2e bf 3d 4a f2 60 3c 23 1d 01 3d dc 82 2d 3e
       0.09335011 0.013729641 0.031521928 0.1694445
000350 c1 62 21 bc ad 4c 6a 3c 02 67 0f 3e dc fc 0a bd
       -0.009850205 0.0143005075 0.14004138 -0.03393255
000360 ca 84 70 3d 94 f8 0b bc e9 95 d8 3d 8f 5d 97 3d
       0.058720388 -0.008543152 0.10575468 0.07390892
000370 b3 18 21 3d cb 04 d5 3b f9 f0 d2 bc 38 a4 e2 bd
       0.039330196 0.0065008155 -0.02574967 -0.110664785
000380 6a 42 0d be 4c b9 dd bd b3 08 b4 3d 73 20 84 3d
       -0.13794866 -0.10826358 0.08790722 0.06451502
000390 57 c3 d1 3c 1d 64 35 be e8 3f b2 3d 34 20 ff bd
       0.02560584 -0.17713971 0.087035954 -0.12457314
0003a0 d8 00 2d 3d 5a 90 29 3e ab 98 98 bd 66 14 18 be
       0.042237133 0.16558972 -0.07450994 -0.14851531
0003b0 3c 7a 84 bd c8 f4 b5 3d 30 e1 9f bd 89 ed 34 3d
       -0.06468627 0.08884579 -0.07806623 0.044171844
0003c0 51 1b 2b bd 3e 37 9c be 6b 12 e2 bd 22 f1 08 3d
       -0.041774098 -0.30510896 -0.11038669 0.033433087
0003d0 ef 5d 26 bd cb de bc bc c8 fa bd bd 59 9e 08 3e
       -0.040616926 -0.023055455 -0.09276348 0.13341655
0003e0 25 03 cf bd 67 e9 02 be a5 9e 9b bc ba 04 b3 3d
       -0.10108022 -0.12784348 -0.018996546 0.08741136
0003f0 93 e9 b8 bd 61 85 aa 3c 46 52 d7 bd 63 02 4e bc
       -0.09028926 0.020815553 -0.10513739 -0.012573811

bias f4 [27]
000000 80 e1 04 3d c0 b8 f1 3c bc d3 7c 3d 82 a8 67 3d
       0.032441616 0.029507041 0.061725363 0.056557186
000010 6a b2 3d 3d df 61 8d 3c 41 2d 1c bc 64 bc 89 b9
       0.046312727 0.017258583 -0.009532274 -0.00026271038
000020 61 8a ff 3c 59 4e f2 3c 81 ef 5f 3d c8 f1 60 bc
       0.031193914 0.029578375 0.054671768 -0.01372952
000030 7b c7 4f bd 8c b1 75 3d c2 b9 bf 3b 76 48 8a 3d
       -0.05072735 0.059983775 0.0058510015 0.06752102
000040 8f ed 79 3d 59 7d a6 bc ca f7 30 bc 30 d5 02 bd
       0.06101757 -0.020323442 -0.010801265 -0.031941593
000050 57 05 01 3d e5 9a f5 bc ca 38 6c 3d 71 cc 5e bc
       0.031499233 -0.029981086 0.057671346 -0.013598547
000060 19 e2 eb 3b e8 f8 6b 3d 05 d9 05 3d
       0.007198584 0.057610422 0.03267767
