models/model.pth (torch, 164900 bytes, 21 tensors)

weight f4 [24, 3, 3, 3]
000000 2e 0a 4c bd aa 81 cf 3d 1a c8 11 be 97 61 d2 3d
       -0.049814396 0.10132153 -0.14236489 0.1027252
000010 24 13 08 3f 67 43 2a 3e ce a9 11 be 25 d4 35 3e
       0.53154206 0.16627274 -0.14224932 0.17756708
000020 66 e9 d3 3d fc 50 ef 3e a7 a4 24 3f f1 a8 ce 3e
       0.103472516 0.46741474 0.6431374 0.40363267
000030 66 a4 25 3f 61 36 63 3f d9 80 32 3f a8 d8 bd 3e
       0.6470398 0.8875485 0.69727856 0.37079358
000040 fa 0c 2d 3f 4a 65 09 3f 04 ee e1 be 57 e3 36 bf
       0.67597926 0.5367018 -0.44126904 -0.71440643
000050 e5 f8 91 be 75 1d 47 bf 9c 62 b4 bf 65 c6 5e bf
       -0.28510204 -0.7777932 -1.4092593 -0.87021476
000060 a6 15 9b be e1 4d 5f bf 3e 3b 34 bf 11 8c 26 3f
       -0.30289954 -0.8722821 -0.70402896 0.65057474
000070 3e 89 41 3d f5 f7 39 bf ba 0a 90 3f 2b b9 a3 bd
       0.047250025 -0.7264398 1.1253273 -0.07994302
000080 29 dc 8b bf 2c 32 21 3f 53 4d 7d 3e 69 72 53 bf
       -1.0926563 0.6296718 0.24736528 -0.8259645
000090 3f b9 97 3f 93 13 1f 3e ec 8a ab bf a6 56 e9 3f
       1.1853408 0.1553481 -1.340177 1.8229568
0000a0 e6 4a 26 bb aa b9 e9 bf 98 93 95 3f 2d 43 49 3e
       -0.0025374233 -1.8259785 1.1685667 0.19654532
0000b0 53 55 b1 bf 2f bd d5 3e 32 4a 51 3e a7 53 1b bf
       -1.3854164 0.41745898 0.2043846 -0.6067452
0000c0 49 04 5b 3f 78 7e a9 3c 23 76 56 bf e1 e0 f5 3e
       0.85553414 0.020690188 -0.8377401 0.4802313
0000d0 1a 18 8e 3d be 44 19 bf 64 18 7f bf 48 47 3e 3e
       0.06938191 -0.5987052 -0.9964659 0.18581879
0000e0 37 3d 5a 3f 60 82 b8 bf 24 46 6a bd 0c 48 c1 3f
       0.85249656 -1.4414787 -0.057195798 1.5100112
0000f0 33 5c 86 bf e6 19 c8 bc 17 29 7f 3f b4 34 96 bf
       -1.0496887 -0.024426412 0.99672073 -1.1734834
000100 3c f4 c4 bc 2b 86 93 3f c4 8a d8 bf fb 37 76 bd
       -0.024042241 1.152532 -1.6917348 -0.06011198
000110 a0 43 de 3f ec 8a a7 bf 72 72 61 3e 91 a2 8f 3f
       1.7364388 -1.308927 0.22016314 1.1221486
000120 27 40 93 be f5 96 a2 bb 1f 4e 94 3e 1c c2 e8 be
       -0.28759882 -0.004961843 0.28965852 -0.45460594
000130 b2 bc 21 3c db b9 de 3e 73 7e ca be 03 eb 54 3e
       0.009871649 0.4350117 -0.39549598 0.20792775
000140 b0 e7 61 3e 92 4c 00 3e 03 95 7a be 36 a8 c5 be
       0.22061038 0.1252921 -0.24470906 -0.38604897
000150 37 3f 94 3e fe f7 a3 bd e3 37 c5 be e0 92 d4 3e
       0.2895448 -0.08006285 -0.385192 0.41518307
000160 15 d7 da 3e da 2b e5 bd c7 ce 9b 3d 8f 29 6b 3f
       0.4274222 -0.11190005 0.07607799 0.9186029
000170 b8 0c dc 3e 2e 2a 5c bf 36 c2 38 3d c8 0e 5b 3f
       0.42978454 -0.8600186 0.04510709 0.8556943
000180 be bc d3 be 66 81 7f bf 1f b9 ac bd cd c8 dc bd
       -0.41354936 -0.9980682 -0.084337465 -0.10780487
000190 1e 8f cd 3f 11 73 29 3f 89 2a be bf cb a8 fe 3d
       1.6059301 0.661912 -1.4856731 0.124345385
0001a0 2d 48 d1 3f 28 9d 2e bf a7 36 ee bf 97 1f 00 3d
       1.6350151 -0.6820855 -1.8610429 0.031280126
0001b0 63 8b 2b 3f d2 a8 d6 3f a7 ac 29 3f b2 bd a0 bf
       0.6700956 1.677027 0.6627907 -1.255789
0001c0 85 64 4a 3e b6 25 c4 3f 41 ab 60 bf d1 8f ff bf
       0.19764908 1.5324008 -0.8776131 -1.9965764
0001d0 a8 ee 27 bf 8b 9c cb 3e 05 1d 84 3f 1c 0f 0e 3f
       -0.65598536 0.3976787 1.0321356 0.55491805
0001e0 70 34 58 bf ac 60 2b bb 6c 74 50 3f 0b b5 02 bf
       -0.84455013 -0.002615015 0.81427646 -0.510575
0001f0 49 6e 87 bf e0 b5 d7 be d0 27 ad bd bc c0 04 be
       -1.0580531 -0.42130947 -0.08454859 -0.12964147
000200 56 67 15 be db 6d 05 3d 50 78 2d bd eb a0 e6 bd
       -0.14590201 0.03257547 -0.042351067 -0.112611614
000210 cd 61 53 3e 57 7a 51 3e a4 5e e5 3d d3 dd 6e bf
       0.20642777 0.20456825 0.11199692 -0.93307227
000220 10 9c 82 be 4b 5e de 3e e0 19 32 be 74 35 d6 3f
       -0.2550969 0.43431315 -0.17392683 1.6735063
000230 68 1d 88 3c 0c 5b d0 3e eb a9 b5 bd 30 f6 6a bf
       0.016615584 0.40694463 -0.088703 -0.917819
000240 af ad ab bf e2 de 64 be 4a 22 0d 3f 16 3b 2d bd
       -1.3412379 -0.22350648 0.55130446 -0.042292677
000250 7b 4e 12 40 ae 6c 91 bd 9b 75 13 3f d6 90 36 be
       2.28604 -0.07100807 0.57601327 -0.17828688
000260 77 5b b1 bf a5 87 12 bf 2d 91 dd bd 60 80 a4 3e
       -1.3856038 -0.5723823 -0.10818706 0.32129192
000270 38 9c 8c bd c3 46 9a 3f 7f 29 03 be d2 23 9a 3e
       -0.06865734 1.2052845 -0.12808798 0.30105454
000280 99 c4 73 be 5f 56 25 bf 79 79 2c 3f c5 46 3d 3f
       -0.23805465 -0.64584917 0.6737285 0.7393611
000290 0a ea 86 3e b5 60 6c bf c1 80 c4 bf 0d f7 7c bf
       0.26350433 -0.92335063 -1.5351793 -0.9881447
0002a0 7f 9c 7f 3e 3e c1 39 3f 75 04 41 3f 46 ef 81 3f
       0.24962042 0.7256049 0.75397426 1.0151145
0002b0 62 b6 86 3f 7e 8a d7 3e 65 35 b1 bf e2 9f 0e c0
       1.0524409 0.4209785 -1.384442 -2.2285085
0002c0 e9 c4 be bf ba e5 bd 3e 03 ec 83 3f 03 dd 8a 3f
       -1.4903842 0.3708933 1.03064 1.0848697
0002d0 69 09 c6 3e f4 89 0a 3f 9a b1 3d 3e 7a 1b 0c bf
       0.38679054 0.5411675 0.18524781 -0.54729426
0002e0 67 a6 78 bf 43 d1 17 bf ec 95 24 3e 4f 8e ed 3e
       -0.9712891 -0.59303683 0.16072816 0.46397635
0002f0 25 00 bc 3e 05 38 c8 bc c7 ad c3 3e 80 4b 91 3d
       0.3671886 -0.024440775 0.3821852 0.070944786
000300 c9 e6 d2 3e d3 1e 9b 3f c5 b7 13 3f 2b 35 c0 3d
       0.411917 1.2118782 0.57702285 0.09385141
000310 41 e5 19 3f 21 66 97 3e 6f 72 46 be c6 93 5b bf
       0.6011544 0.29570106 -0.1937959 -0.8577236
000320 88 d3 70 be da 64 62 bf 65 48 13 c0 e9 f5 93 bf
       -0.23518193 -0.8843514 -2.3012936 -1.1559421
000330 33 40 a8 be 36 8a 9d bf 17 03 30 bf 83 e5 6d 3e
       -0.3286148 -1.2307804 -0.68754715 0.23232083
000340 4a 10 fc 3e 23 cb 24 3e 04 f8 02 3f 5d a1 91 3f
       0.49231178 0.16093116 0.5115969 1.1377369
000350 dc e3 21 3f b6 b3 59 3e 63 c6 2f 3f e2 2a c2 3e
       0.6323831 0.2125996 0.6866209 0.37923342
000360 d1 3c bd be f6 83 22 bf 69 17 0f be 17 7e 38 bf
       -0.36960462 -0.63482606 -0.13973774 -0.720674
000370 0d 5a b3 bf e2 bb 39 bf dd 10 1e be 7e d3 2d bf
       -1.4011856 -0.7255231 -0.1543612 -0.67900836
000380 f3 50 92 be 31 e2 11 3f 9b e0 8a 3f 8d fd be 3e
       -0.28577384 0.56985766 1.0849794 0.3730282
000390 1c f7 91 3f a1 61 0a 40 03 cd 99 3f 48 d7 a1 3e
       1.1403537 2.1622088 1.201569 0.3160956
0003a0 af dd 90 3f 81 3a 21 3f 4c 1e 37 be 14 1d e4 be
       1.1317652 0.62979895 -0.17882651 -0.44553435
0003b0 ef f6 5f be 36 2b e5 be a4 76 67 bf 74 1c fb be
       -0.21871541 -0.4475953 -0.90415406 -0.49045146
0003c0 27 46 22 be b9 bb f5 be 89 1e bd be a3 b8 77 be
       -0.15847073 -0.47994784 -0.3693736 -0.24191527
0003d0 46 ea 5f 3f e5 49 18 bf 0a 23 6a bf 00 14 df 3f
       0.8746685 -0.59487754 -0.91459715 1.7427979
0003e0 36 fb 5a bf 3b 0b 3f bf c1 5b 6b 3f 0c 9b 2a be
       -0.8553957 -0.7462651 0.9193688 -0.16660708
0003f0 00 bc c3 be 73 f0 a9 3f 70 95 68 bf dc e8 98 bf
       -0.3822937 1.3276504 -0.90853024 -1.1946063

weight f4 [24]
000000 45 07 a0 3f 09 20 e1 40 a9 06 e2 40 20 b8 7b 40
       1.2502218 7.0351605 7.063313 3.933113
000010 0d 12 a9 40 11 d0 97 40 be 0e ba 40 3c 2c 90 3f
       5.2834535 4.7441487 5.8142996 1.1263499
000020 79 02 9d 3f 80 24 bd 40 c2 b9 e7 40 ff a2 ca 40
       1.226638 5.9107056 7.2414255 6.332397
000030 33 e0 d0 40 50 07 a5 3f f1 b2 9b 3f 83 44 f6 3f
       6.527368 1.2892857 1.2163984 1.9239658
000040 aa ba bc 40 f5 f8 c4 40 e3 0e dd 40 2f 59 fd 3f
       5.897786 6.1553903 6.908067 1.9792842
000050 87 ca 60 40 cb 9c ce 40 53 23 ba 40 7a 69 97 40
       3.5123613 6.45664 5.816812 4.7316256

bias f4 [24]
000000 e0 42 a0 3f 1f fb 36 3f 68 0d 27 3f 74 e3 20 3f
       1.2520409 0.7147693 0.6525483 0.62847066
000010 9e f9 4b 3f 32 0c 92 40 f5 2a 48 40 9f 95 50 40
       0.7967776 4.5639887 3.127622 3.2591321
000020 7b c6 1b 40 d6 1c 87 3f fa 4d fe c0 f8 74 8b 3f
       2.4339893 1.0555675 -7.9470186 1.0895071
000030 c3 f8 63 3f 2f 81 83 40 85 cb dc 3f bc bf cd 40
       0.89051455 4.1095195 1.7249609 6.429655
000040 fc 24 f5 3f 97 ed 44 41 b1 90 99 41 8a d6 ac 40
       1.9151912 12.308005 19.19565 5.401189
000050 07 c8 1b 40 b2 f1 74 3f 74 b3 47 40 6c 71 50 41
       2.4340837 0.956813 3.120328 13.027691

running_mean f4 [24]
000000 0c 59 d4 be b7 41 f5 3c 10 86 c2 bb 9c 69 3d 3c
       -0.41474187 0.029938562 -0.0059363917 0.011560824
000010 82 ed b0 3c 1c a3 fb bd af e8 7c 3d 84 b5 50 3e
       0.021597628 -0.1228697 0.061745342 0.20381743
000020 54 a4 fd bd c3 fb a3 bc b9 75 f3 be aa 76 4d 3d
       -0.12384859 -0.02001751 -0.47550753 0.050161995
000030 23 79 b8 39 f2 30 80 be bb e7 60 be 28 91 e1 3e
       0.0003518547 -0.25037342 -0.21963398 0.44056058
000040 c4 d3 f0 bc 83 5b 0e c0 21 c8 07 40 53 17 da 3b
       -0.029397853 -2.2243354 2.12159 0.0066556125
000050 92 c2 ec bb ba 93 fe ba 47 94 2e 3d c6 6e 3d 3e
       -0.007225343 -0.0019422688 0.042621877 0.18499288

running_var f4 [24]
000000 41 9e af 40 65 a1 c3 41 c6 96 bf 41 86 05 ad 40
       5.488068 24.453806 23.94862 5.4069242
000010 ad e6 2c 41 c5 71 8e 40 00 43 9d 40 6f 4a 4f 40
       10.806317 4.451388 4.9144287 3.238918
000020 14 da 93 40 db 90 a4 40 9d 4f 3d 40 50 d1 83 41
       4.620371 5.1426826 2.9579842 16.477203
000030 6b 0b 8a 41 82 18 6f 40 9e 40 10 41 1a d3 15 41
       17.255575 3.7358708 9.015776 9.364038
000040 07 1a 95 40 08 f6 78 42 b4 7c 64 42 8b 79 51 3f
       4.659427 62.240265 57.12178 0.81826085
000050 8a 24 4d 3f 14 65 82 41 cd 10 a7 40 b7 e5 9a 40
       0.8013388 16.299355 5.220801 4.8405414

weight f4 [24]
000000 60 0e 7e 3f ec ba 7a 3f 1f eb 73 3f e2 1f 76 3f
       0.99240685 0.9794147 0.9528064 0.961424
000010 e9 79 73 3f 68 c5 71 3f 30 9a 70 3f b9 11 7b 3f
       0.95107895 0.94441843 0.9398527 0.9807392
000020 b5 8a 78 3f 50 e7 74 3f ee d5 7b 3f 4d 77 72 3f
       0.9708665 0.95665455 0.98373306 0.9471329
000030 03 ee 7b 3f 8a 02 7b 3f 9b e2 7b 3f 66 12 7a 3f
       0.9841005 0.9805075 0.9839265 0.97684324
000040 b8 c6 6d 3f f0 58 82 3f 33 15 81 3f 35 f5 73 3f
       0.92881346 1.0183392 1.0084594 0.9529603
000050 bf 2c 72 3f 4b d5 77 3f ba a6 7a 3f b6 48 79 3f
       0.9459953 0.96809834 0.97910655 0.97376573

bias f4 [24]
000000 06 a4 31 3d c7 36 ba 39 e1 07 95 bd c3 b3 79 bd
       0.043369316 0.00035517497 -0.072768934 -0.06096245
000010 8d d9 17 bd d5 e8 99 bc 93 c6 61 3d 49 e2 9f 3d
       -0.037072707 -0.01878778 0.055121016 0.07806832
000020 6e 91 55 bd 94 38 48 3d 9b 81 b7 39 07 fa d7 3b
       -0.052140646 0.048882082 0.00035001044 0.006591085
000030 e5 39 3c 3c eb ed 2d 3d 48 87 3c 3d b0 d9 e0 bd
       0.0114884125 0.042463224 0.04602745 -0.109790206
000040 f0 7f 4f bd 68 72 c4 3d c7 c7 84 3d 5b 50 c1 bd
       -0.05065912 0.09592134 0.06483417 -0.09439155
000050 c7 6e 40 3d 17 81 5d bd a0 c6 5c 3d c7 fa 92 3d
       0.046980646 -0.054078188 0.05390036 0.07176738

running_mean f4 [24]
000000 94 8c ab 3f 28 b6 1e 40 7e f2 1c 40 1f 1d c5 3f
       1.3402276 2.479868 2.4523005 1.5399512
000010 68 46 03 40 e6 36 9f 40 f4 d2 7c 40 77 c4 50 40
       2.0511723 4.9754515 3.9503756 3.2619913
000020 32 bf 1d 40 98 78 15 40 da d6 14 3f 86 a4 21 40
       2.4647946 2.3354855 0.5814034 2.5256667
000030 1d 15 1d 40 05 ba 83 40 15 c3 e0 3f 7c b6 cd 40
       2.4544137 4.1164575 1.7559534 6.428526
000040 66 20 3f 40 ab e3 44 41 fb 88 99 41 5a dc ad 40
       2.9863524 12.305583 19.191885 5.4331484
000050 2a 69 36 40 e4 a2 1f 40 dd 24 7c 40 5a 93 51 41
       2.8501687 2.494317 3.93975 13.0984745

running_var f4 [24]
000000 d8 3a 9a 3f c9 ee aa 41 22 01 b2 41 71 8b e7 40
       1.2049208 21.366594 22.250553 7.2357717
000010 ae 78 4e 41 90 46 71 41 a4 19 90 41 bb fa 9e 3f
       12.904463 15.079727 18.01252 1.2420267
000020 d2 0f a9 3f 15 97 85 41 5b f6 35 40 6d 21 95 41
       1.3207953 16.69877 2.8431613 18.641321
000030 1c a8 96 41 da 85 ca 3f 90 dc a3 3f 9e c1 6c 40
       18.832085 1.5822098 1.2801685 3.6993175
000040 9d 38 8e 41 da 86 17 42 f4 d8 3e 42 9f 64 59 40
       17.777643 37.88169 47.71187 3.3967664
000050 98 b0 e6 40 aa 96 92 41 21 e0 8f 41 c9 24 9e 41
       7.209057 18.323566 17.984438 19.767962

weight f4 [48, 24, 3, 3]
000000 3f 37 20 3d 05 b5 30 bd 53 ba 4c 3d 11 d7 79 3d
       0.039115187 -0.043141384 0.04998238 0.06099612
000010 93 df a7 3c 66 3e a2 bd af 69 98 bd e3 85 af 3c
       0.02049235 -0.07922058 -0.074420325 0.021426147
000020 04 0c 86 bd a5 0c 3b 3e 98 b6 05 3e 0d df db bd
       -0.065452605 0.18266542 0.13057935 -0.10735903
000030 f7 d5 4e be 04 04 5e bb 66 ae 03 3e 8d 7b fa 3d
       -0.20198809 -0.0033876905 0.12859496 0.12230597
000040 68 01 24 bd 43 c8 8a 3c 31 2c 98 3d 93 18 1b 3e
       -0.040040404 0.016941195 0.07430304 0.15146093
000050 78 a2 09 be cf 6c 7e 3d a6 28 07 3d be 0b 16 bc
       -0.13440883 0.062115487 0.03299775 -0.009158073
000060 89 2f df 3d f4 36 34 3d c4 85 05 3d dd 45 8c bd
       0.108977385 0.04399772 0.032598272 -0.06849263
000070 0b 38 a6 3c 65 b4 57 3c 37 15 21 be 28 7d 37 be
       0.020290395 0.013165568 -0.15730749 -0.17918837
000080 3f bc b3 bd 16 e2 72 3d 92 80 a0 bd dc 57 46 3d
       -0.087761395 0.059297644 -0.07837023 0.048423633
000090 30 30 2f bd 0e 23 e2 bd 82 28 25 3e e0 56 0a be
       -0.042770565 -0.110418424 0.16128734 -0.13509703
0000a0 06 f3 8c be bf f0 d2 3d 1c 9e 95 3c 9c e3 f9 bd
       -0.27529162 0.10299825 0.018263869 -0.12201616
0000b0 02 06 8b bc 9c 3f 04 be 16 41 44 bc 71 02 20 3d
       -0.016970638 -0.1291489 -0.011978408 0.03906483
0000c0 a3 93 82 3c a7 17 35 bd 8f ef e2 bd 63 f2 3d bd
       0.01593954 -0.04421201 -0.110808484 -0.046373736
0000d0 82 23 a9 3c 0d 45 cd bd 7a 10 84 be f2 c8 39 be
       0.020646814 -0.10022936 -0.2579382 -0.18143061
0000e0 30 7c 04 bd 35 0b dd 3d 10 fe d8 bd 8e 05 6e bd
       -0.032344997 0.10793153 -0.105953336 -0.058110766
0000f0 2a 66 78 3d f0 bc 01 3d aa e1 78 bd cc 29 c7 3c
       0.060644306 0.031674325 -0.060762085 0.024311922
000100 a3 75 b7 3c 26 b2 ad bd fd e0 19 bb 75 4a c1 bd
       0.02239496 -0.08481245 -0.002348005 -0.0943803
000110 37 bb 44 3d 55 7a 08 3d 70 34 00 be 03 5f e6 bd
       0.048030104 0.03331979 -0.12520003 -0.11248591
000120 a8 d2 88 bd 77 2f 19 be 60 5b bd bc bf d5 2b 3d
       -0.066808045 -0.14959513 -0.02311486 0.04195189
000130 13 58 35 bd 55 30 00 bc 73 24 c6 3d 61 a5 f9 3d
       -0.044273447 -0.007824023 0.09674921 0.12189747
000140 28 a8 30 bd 0e ac c5 bc 91 b7 91 3c c8 3c 45 be
       -0.043129116 -0.024129894 0.017787727 -0.19261467
000150 32 22 c1 3c 5b f5 f2 3d 99 2f c9 bd 75 18 d0 bd
       0.023575876 0.11863204 -0.09823532 -0.10160915
000160 7f 22 b7 be 22 22 a3 bd d3 f2 6d 3c f8 5e 9b bc
       -0.35768506 -0.07965495 0.014523226 -0.018966183
000170 cd 41 c4 3c 2a 30 0d be 0e 1f f4 3c 0d d2 27 bd
       0.023957158 -0.13787904 0.029799964 -0.040971804
000180 0c dd d9 3d a7 ce 16 bb 25 30 c3 3c 5a 1b c1 bc
       0.106378645 -0.0023011358 0.023826668 -0.023572613
000190 f1 c8 37 be 8a 99 aa 3d 5c 03 b3 bd c8 7c c1 bb
       -0.17947747 0.083300665 -0.08740875 -0.0059047677
0001a0 d9 79 cc 3d 72 8f f4 bc 23 f7 56 3d cd 3e 73 3c
       0.09984178 -0.029853556 0.05248178 0.014846516
0001b0 c6 a9 e4 3d d5 0c ba 3d b1 e4 93 bd 36 99 48 3c
       0.11165194 0.09084479 -0.07221354 0.01224356
0001c0 fa 69 f8 bd 9b 72 6e 3d 64 ae 85 3d 86 55 c6 bd
       -0.121295884 0.058214765 0.06527403 -0.09684281
0001d0 7a d5 3d 3d 7d 7f c3 bd 09 93 42 bd da b2 19 3e
       0.046346165 -0.09545801 -0.047503505 0.15009633
0001e0 c8 cc c6 bd 75 52 e6 bc a1 75 39 3d 16 45 d9 bc
       -0.09707028 -0.02811549 0.045278195 -0.0265222
0001f0 06 0b 13 be 2e 6b 81 bd 05 3d 30 be e8 a6 3e 3e
       -0.14359674 -0.06319271 -0.17210777 0.18618357
000200 10 12 4d 3d 83 ed 45 bd b8 fa 06 bd dc 58 a9 bc
       0.050066054 -0.048322212 -0.032953948 -0.020672254
000210 54 38 64 bc 16 45 56 bd 16 e2 c9 3c 92 76 df 3c
       -0.013929445 -0.05231198 0.024643939 0.027278218
000220 bd c9 53 bd 88 87 c4 3c 28 e3 78 3d 70 79 09 bc
       -0.051706064 0.023990408 0.060763508 -0.008390769
000230 be e0 1f bd 7b 98 b3 ba ba 1a a7 bd f1 ed c8 3d
       -0.03903269 -0.0013702059 -0.081593946 0.09811009
000240 e5 d0 b6 bd a5 0f 5c bd c6 cc 62 3d fd 3d 0a 3d
       -0.08926562 -0.053725857 0.05537107 0.033750523
000250 d9 51 e8 bc fc 77 3a be 17 5c 21 be db 97 2e 3d
       -0.02835934 -0.18209833 -0.15757786 0.04262529
000260 3a e5 5f bc ce 6f d1 3c 91 ea 2a bd b7 64 98 bb
       -0.013665492 0.025566008 -0.041727606 -0.004650678
000270 a5 cc 25 3e 58 dd 00 be e0 a1 8b be d4 66 ef bd
       0.16191347 -0.12584436 -0.27271938 -0.11689535
000280 38 ce 9c 3d 40 62 df bd 78 7c c4 bd 04 af c5 3d
       0.076565206 -0.109074116 -0.09594053 0.09652522
000290 eb cd 93 bc ca c6 fe 3d 64 fd 7d bd d6 52 5e 3d
       -0.018042525 0.1244026 -0.06200923 0.054278217
0002a0 84 f9 16 bd 4c ce c4 bd b8 e8 cc 3d c5 9b 86 bd
       -0.03685905 -0.096096605 0.10005325 -0.065726794
0002b0 96 21 34 bd 89 42 c1 bd 8d a7 eb bc e1 fe f0 bc
       -0.043977343 -0.09436519 -0.028766418 -0.02941841
0002c0 2c 19 c3 be 74 60 76 bd f2 e9 da bd a8 7f 84 bd
       -0.38105142 -0.06015058 -0.10689153 -0.06469661
0002d0 9b d8 16 3e 4b a1 76 3c 84 90 ed bd 13 a3 04 3e
       0.14731066 0.015053104 -0.1159983 0.12952833
0002e0 0d f8 06 be 39 af aa 3c 20 55 98 bd c3 56 0b bd
       -0.13180561 0.020835506 -0.07438111 -0.03401829
0002f0 2b 0f 10 3d 24 f9 18 be 61 22 c2 bc 2d 7c fb bd
       0.035170715 -0.1493879 -0.023698034 -0.12279544
000300 86 16 be ba 3a 90 f3 bd 8a 6f 1a bc cf fc 13 bd
       -0.0014502562 -0.118927434 -0.009426007 -0.03612977
000310 9a b8 b4 3d bd 1e 98 bd 5b ad f9 3d 20 a9 21 3d
       0.088242725 -0.07427738 0.12191268 0.03946793
000320 44 af a9 bd 16 1a b1 bd f3 fb d7 bb 06 eb 0c 3e
       -0.082853824 -0.086475536 -0.006591314 0.1376153
000330 c2 5e 81 bc 74 fd 1a be d7 86 c3 bd e5 08 81 3d
       -0.015792254 -0.15135747 -0.09547203 0.063005246
000340 47 40 f1 bd 2c bd 79 bc 15 98 ef 3d 5f b5 2a 3c
       -0.11779838 -0.015242856 0.11698929 0.010419219
000350 04 d6 de bd 83 1a 9c 3d 20 f9 44 be 28 44 42 bd
       -0.10880664 0.07622244 -0.19235659 -0.04742828
000360 53 fc 98 3d c6 61 78 bd 16 9d 99 3d f1 d6 23 bd
       0.07470002 -0.06064012 0.07500665 -0.039999906
000370 d7 96 b3 3d 76 fd 02 3e 44 3e 41 3d 30 55 7b 3d
       0.08769005 0.12792 0.04717852 0.061360538
000380 e8 c3 11 bd 68 1d c0 3d 8b 9f bf 3d cc 97 ba bc
       -0.03558722 0.09380609 0.09356602 -0.02277746
000390 3f 14 d0 bc 90 7e a3 bc bf ed a3 bd 85 86 ae bd
       -0.02540028 -0.01995781 -0.08004331 -0.08521751
0003a0 61 75 75 bb 25 4e eb bd d8 d8 c3 3c 87 04 6f bd
       -0.0037453996 -0.11489514 0.02390711 -0.058353927
0003b0 62 62 9b 3d e8 82 db bc 92 1c 4a 3b 1e 97 27 be
       0.075871244 -0.02679582 0.0030839783 -0.1636624
0003c0 3a cb a0 3d ef 4b e9 bc ba 74 e5 bd 09 04 04 bb
       0.078512624 -0.02847859 -0.112039044 -0.0020144007
0003d0 5e 50 91 3d 8d 8f ef 3d b4 00 50 bd 6b 25 85 bd
       0.07095407 0.11697302 -0.05078192 -0.065012775
0003e0 7a 6a db 3c 4a 90 d0 bd 22 cf d1 3d 26 6a 46 bd
       0.02678417 -0.10183771 0.102445856 -0.048441075
0003f0 cf 74 44 be 27 0e e7 3d 96 c2 25 3d 2d ad 04 be
       -0.19185184 0.11281996 0.040468775 -0.12956686

bias f4 [48]
000000 51 92 da bc 34 b3 5a 3b 98 12 a3 3d 58 64 cb 3d
       -0.026681097 0.0033370974 0.07962531 0.099312484
000010 62 d7 8d 3d eb 31 9d 3d 78 b9 c6 bd 31 fd 90 3d
       0.06925847 0.07675537 -0.09703344 0.070795424
000020 5a ea c8 3d 49 9f d2 bc 2c 85 c8 bc e5 39 bd 3d
       0.09810324 -0.025710719 -0.024477564 0.09239558
000030 40 14 aa 3d 60 9f e4 3d ad 10 97 3d 11 6c 9a bd
       0.08304644 0.11163211 0.073762275 -0.07540143
000040 aa 5f c4 3d f3 f4 a2 bc dc 81 f1 bd 43 c0 fa 3d
       0.09588559 -0.019892192 -0.11792347 0.12243702
000050 da a9 91 3d 1e 4d d9 3d 09 24 9f 3d 86 37 03 be
       0.07112475 0.10610412 0.07770545 -0.1281415
000060 08 1a 8e 3d 35 93 1e bd 6a dd 9a bd 0c 57 2c 3d
       0.06938559 -0.038714606 -0.07561763 0.042075202
000070 7c 7c 42 3d f0 dd 6f bd 77 41 a6 3d af be 88 3d
       0.047482 -0.058561265 0.08117955 0.06676995
000080 c9 ba da 3d 6c d9 c3 3d 7b 0d ba 3d 2a e8 97 3d
       0.10680158 0.09562954 0.090846024 0.07417329
000090 a3 d3 d6 3c 9b e0 96 3d 13 7b e1 3d 71 3a 63 3d
       0.026223963 0.07367059 0.11009803 0.055475656
0000a0 93 8d 80 3d 4a 6b 51 bd 59 77 d9 3d bb 30 b5 3d
       0.06277003 -0.05112771 0.10618467 0.08847185
0000b0 4f 2e 8c 3c ce 51 8e 3d 8a e7 9b 3d 15 00 c0 3c
       0.017111925 0.06949197 0.07612522 0.02343754

weight f4 [24, 48, 3, 3]
000000 d6 ce 06 3d d1 64 1a 3c 96 49 b1 bd a2 8c 82 3d
       0.032912098 0.009423451 -0.086566135 0.0637448
000010 6f 6d 00 3d 1f a9 29 3c 63 c9 7e bd 5d ec 0e 3d
       0.031354364 0.010355263 -0.062203776 0.034893382
000020 9a 5d 78 bc b9 69 83 bd ed 3c a5 bd 10 25 2b bc
       -0.015159035 -0.06416649 -0.08068261 -0.010445848
000030 af 62 d4 3d c7 db 7f 3d f0 26 c6 bd 3d 6e 6a bd
       0.10370385 0.062465455 -0.096753955 -0.057234038
000040 dc 6d 64 bd 84 a8 48 3e 00 34 e0 bd 55 b1 33 3d
       -0.055768833 0.19595534 -0.10947418 0.04387029
000050 ce dd 3b 3d 6a e6 e6 bc a7 69 33 3c 5f fc 7d 3d
       0.045865826 -0.028186042 0.010950482 0.062008258
000060 e0 b6 84 3d 89 6d 93 bd 07 2e f9 3c 2f 8e 02 be
       0.06480193 -0.071986265 0.030417455 -0.12749551
000070 8b a1 fb bd 64 b5 c4 3c 9a 21 36 bd d3 35 a1 3c
       -0.12286671 0.024012275 -0.04446564 0.019678986
000080 78 53 87 3c ff c1 23 bd 7a 39 8a 3a 7a 33 82 bd
       0.016519293 -0.03997993 0.0010545694 -0.063574746
000090 65 19 98 bc 95 f4 43 bd 8b ed 70 bb 16 39 74 3d
       -0.018566797 -0.047840673 -0.003676268 0.059624754
0000a0 cd ba 14 bd 65 89 34 3d 8f fb 92 bd dd 50 d9 3c
       -0.03631096 0.044076342 -0.07176887 0.026527816
0000b0 85 9b 59 bd 29 a7 2c bc ae 6a 39 bd 11 5f 0b be
       -0.05312683 -0.010537901 -0.045267753 -0.13610484
0000c0 a7 78 a9 bd df b6 10 3d 1b b0 ff bc a5 5a 9f bd
       -0.08274966 0.03533065 -0.031211903 -0.07780961
0000d0 a4 91 f2 3d c0 12 d4 bd bf 18 f5 3d c1 21 29 bc
       0.11844185 -0.10355139 0.119676106 -0.010322989
0000e0 62 09 ad 3d 34 b8 ac bc 52 87 e6 3d 5a bc 55 3e
       0.08449055 -0.021083929 0.11256279 0.20872632
0000f0 5e 1a bb 3c d1 6a 8a 3d 69 fe a9 bc 33 83 1e be
       0.022839721 0.06758655 -0.020751195 -0.15479736
000100 44 3f a8 bd 61 00 11 be 22 f1 a2 bd a5 fc c8 b8
       -0.08215192 -0.14160301 -0.07956149 -9.583802e-05
000110 d4 68 df 3c 36 d0 da bd 8a 93 08 bd 68 c3 18 bd
       0.027271666 -0.10684244 -0.03334383 -0.03729573
000120 4d d6 b0 bc 92 db e9 bd db 00 aa 3d 3c fd a2 3a
       -0.021586562 -0.11418833 0.083009444 0.0012435089
000130 2f 43 1c 3d 3f f7 da bc d1 15 2c bd 20 32 d5 bd
       0.03815001 -0.026729224 -0.042012993 -0.10409951
000140 e9 c5 7f 3d 74 3e 06 3d 4f 62 79 3c 9d ee a3 bc
       0.0624446 0.032774404 0.0152211925 -0.02001124
000150 97 a2 8b bd 70 02 cb bd 82 e2 64 3d 87 74 f1 bd
       -0.06818121 -0.09912574 0.055880077 -0.11789804
000160 fb d7 53 bd 1e 7f 9b bb bd 02 7c 3c ad ff 5b 3c
       -0.051719647 -0.004745378 0.015381512 0.013427657
000170 16 60 ac 3d 88 c6 fd 3c aa a8 8c bd cd 5b cc bc
       0.084167644 0.030978456 -0.068681076 -0.024946118
000180 b5 a1 4a bc fd b3 97 bc 57 60 db bc b4 65 32 3c
       -0.0123676555 -0.018518442 -0.026779337 0.010888506
000190 97 52 1c be a0 43 51 bd ad d0 22 3d 29 51 35 3c
       -0.1526588 -0.051089883 0.03974979 0.011066713
0001a0 36 e7 18 bd bc 47 e0 bd 0d fc 89 3d 71 50 c0 3c
       -0.037329875 -0.10951182 0.06737528 0.023475857
0001b0 35 ad 71 bd 53 13 2c 3e 00 62 c7 3b ea 4b 27 bd
       -0.059003074 0.16804247 0.0060846806 -0.04084388
0001c0 26 5d 22 be 79 e7 8d bd 16 cf 88 3d ac e5 e2 bd
       -0.15855846 -0.069289155 0.066801235 -0.11078963
0001d0 ce 24 51 be 23 31 17 be 2c 59 e6 bc cc 5f 53 3d
       -0.20424196 -0.14764838 -0.028118692 0.05160503
0001e0 e4 2d 14 be 85 ab 02 3d 75 17 1c 3e 56 0d d2 3d
       -0.14470631 0.031901855 0.15243323 0.1025645
0001f0 0f fa 92 bc 79 e6 0e bd c2 54 c3 bd ae 0b 87 3d
       -0.017941503 -0.034887765 -0.09537651 0.065940246
000200 ac 6c 91 3d 43 3e 99 bc 60 1a 0a 3d 2e c8 a6 bd
       0.07100806 -0.018706447 0.03371656 -0.0814365
000210 d9 54 6b be 3e 4d b5 bd 2a 9d 14 be d7 1b f1 3d
       -0.22981586 -0.088526234 -0.14513078 0.11772888
000220 04 a1 52 3c 0f 04 f2 3b 8e 62 c8 3d a7 c4 50 3e
       0.012855772 0.0073857377 0.09784423 0.20387517
000230 cd 6e 84 bc 6c 13 42 bd 71 53 08 3d 8c e7 b9 3d
       -0.016166115 -0.047381803 0.0332827 0.09077367
000240 d4 5f b7 bc 94 fd 89 3d 73 7d 8a bc d0 d5 34 bc
       -0.022384562 0.06737819 -0.016905522 -0.011037305
000250 2a 52 25 3d 9b 9a a3 3a 1e 78 dd bc 69 6e 6d bd
       0.04036156 0.0012481989 -0.027034815 -0.057966623
000260 22 73 c3 bd 30 89 fa bc 4c 36 bf 3c c8 77 9f bd
       -0.09543444 -0.030582994 0.02334132 -0.07786518
000270 a7 0b 91 bd ad 1b 3b 3d 0a a0 90 bd ce 88 51 3d
       -0.07082301 0.04568069 -0.07061775 0.051155858
000280 74 16 ac 3d d6 03 04 bd f9 e6 a4 3d 81 97 a5 3d
       0.0840272 -0.03223022 0.08051867 0.08085538
000290 0b 3a 74 bb 51 cb 4d 3d 6c ff 33 bd 64 4f 9b bd
       -0.0037266042 0.050242726 -0.04394476 -0.07583502
0002a0 69 be 34 bd 65 89 0f bd 97 36 a9 bd 44 4a 7f 3d
       -0.0441269 -0.03504314 -0.08262365 0.062326685
0002b0 09 fe 95 3d dc c7 87 3d 8c f5 ad 3d 06 2c 0b bd
       0.07323844 0.06629917 0.084941 -0.03397753
0002c0 2d 5e cf 3d 8c dc f0 bb 65 30 8e 3d e4 d2 d3 3d
       0.101253845 -0.00735051 0.06942824 0.103429586
0002d0 27 c7 11 ba 01 ae 02 be eb 6b ca bd 5f 4b e9 3d
       -0.0005560987 -0.1276169 -0.09883865 0.11391329
0002e0 ce d7 0a bd 3d 37 5e bd e2 ab a8 bc 62 af d6 bb
       -0.033897214 -0.054251898 -0.020589773 -0.006551669
0002f0 5d 61 f4 3b 90 14 8c bd 49 ce ab bc 97 23 bf 3c
       0.0074578957 -0.068398595 -0.020972388 0.0233324
000300 86 12 dc bc ee 04 16 bd 2f 96 84 bd eb ca af bc
       -0.026864301 -0.036625795 -0.06473958 -0.021459064
000310 c5 83 3a be af 1b f4 bd e6 2c f1 3c 0f aa bd bd
       -0.18214329 -0.11919343 0.029440355 -0.09260952
000320 1b 15 80 be a5 ba 43 bc 84 df 6b 3c 18 68 72 bd
       -0.25016102 -0.011946355 0.014396552 -0.059181303
000330 63 1d 43 3d 9c db 84 bd 4a 71 e2 bd 49 3e d3 3d
       0.047635447 -0.064872 -0.110567644 0.10314614
000340 ac 34 06 bd b9 c4 89 3d d8 62 3f bd 56 41 b8 3d
       -0.032765076 0.06726975 -0.046725124 0.08996837
000350 ee ee 57 3c e3 13 26 bd 26 89 8f 3d 20 f0 00 3e
       0.013179524 -0.04054631 0.07008581 0.125916
000360 3e 54 d2 3d 54 5a ef 3c e1 13 eb bc 70 df 00 3d
       0.10269974 0.029217876 -0.028696002 0.031463087
000370 61 89 af 3d bd 66 00 bd ee 86 09 3d 98 70 50 bd
       0.08571125 -0.03134798 0.033575945 -0.050888628
000380 6c c1 8e 3d e8 2d 80 3d 15 50 0a 3e a1 a9 0b bd
       0.06970486 0.06258756 0.13507111 -0.034097318
000390 ca 3c 99 bd bc b7 a7 bd 29 eb 46 3b c1 d6 d8 3d
       -0.07482298 -0.081893414 0.0030352569 0.10587836
0003a0 60 06 1a 3e b1 07 d6 bd a1 87 65 3d ee 23 23 3c
       0.15041494 -0.10450686 0.05603755 0.009957297
0003b0 ad ce 2f 3d ae 38 d5 3d 21 0c b4 3d de 68 07 3d
       0.04292171 0.104112014 0.08791376 0.033058994
0003c0 92 e3 f8 bd a5 13 29 3c 41 25 75 bd 00 46 7c 3d
       -0.121527806 0.010319625 -0.05984998 0.061590195
0003d0 8a 3c f2 3c b4 ba 04 bd ca cf 01 3e 03 0f a6 3c
       0.029569883 -0.032404616 0.12676921 0.02027083
0003e0 b3 ee 8b bd 37 c0 93 3b f4 3b a5 3d 57 15 65 bd
       -0.06832638 0.004508998 0.08068076 -0.055928554
0003f0 f7 a8 85 3c 6f b7 44 3e 14 bd 22 bd d0 16 e8 bd
       0.01631592 0.192106 -0.0397311 -0.11332476

bias f4 [24]
000000 9e 9a 7f bd b6 f9 8c 3d 73 bd ad 3d a5 f4 25 bd
       -0.062403314 0.06883566 0.084834 -0.040516514
000010 e9 d4 ca 3d 67 87 05 bd 53 aa 15 bd 36 37 a8 3d
       0.09903891 -0.032599833 -0.036539387 0.08213656
000020 c4 b2 a8 3d ab be ce bc 13 33 87 3d 6f e5 38 3d
       0.08237222 -0.025237402 0.066015385 0.04514068
000030 7a 62 d0 3c 6e c2 d7 bc 89 aa bb 3d 41 35 80 3d
       0.025437582 -0.026337828 0.091633864 0.062601574
000040 02 2d 1c 3d 39 50 14 bd c0 75 e1 3d 78 b4 e6 3c
       0.03812886 -0.03620932 0.11008787 0.028162226
000050 fe 8d a7 3d 25 cc 01 bd 8f 6d ac bc 90 af a3 bc
       0.0818138 -0.031688828 -0.021048335 -0.019981176

weight f4 [96, 24, 1, 1]
000000 fd 92 02 be 9e 89 e8 3e 45 48 fb bd 5f 09 0f bd
       -0.12751384 0.45417494 -0.12269644 -0.034921046
000010 20 16 06 3e 4c 30 ad 3e 40 6c e7 3d 02 de 73 3e
       0.13094378 0.3382591 0.11299944 0.23815158
000020 a9 c6 f6 ba fd 13 ef be 5f 53 95 3e dc 34 42 be
       -0.0018827516 -0.46694937 0.2916517 -0.18965477
000030 5a 90 87 bd 73 e3 08 3f 9f a2 3e 3e 3d 1f 33 be
       -0.0661933 0.5347206 0.18616723 -0.17492385
000040 e7 d9 bb be a5 9c 9a 3e 13 4f 00 bf ef cd eb 3e
       -0.36689684 0.30197635 -0.5012066 0.46055552
000050 e7 82 9d 3e f1 e9 7f 3e 5f 64 34 be 1b 85 8c 3d
       0.30763933 0.24991585 -0.17616414 0.06861325
000060 9c 46 01 be 1f d5 eb 3e 07 af f6 bd 1e 31 0f bd
       -0.12624592 0.46061036 -0.120451026 -0.03495895
000070 53 60 0c 3e 77 0b ad 3e 9e 71 e6 3d 58 7b 75 3e
       0.1370862 0.3379781 0.112521395 0.23972833
000080 f6 55 c2 3a 9e 1e ef be b7 16 96 3e 02 9b 41 be
       0.0014826644 -0.46703047 0.29314205 -0.18906787
000090 b2 8a 85 bd 3f 08 09 3f 37 2d 46 3e d2 34 31 be
       -0.06520595 0.5352821 0.19353186 -0.17305306
0000a0 c4 72 bb be 61 bc 9a 3e 27 52 00 bf a2 3f ec 3e
       -0.36610997 0.30221847 -0.50125355 0.46142298
0000b0 52 80 9d 3e d2 79 80 3e 39 99 34 be 95 68 8c 3d
       0.30761963 0.25092942 -0.17636575 0.06855885
0000c0 d0 9e 02 be 9f 82 e9 3e 96 44 fe bd 77 ac 0c bd
       -0.12755895 0.45607468 -0.124154255 -0.034344163
0000d0 d7 1a 09 3e 01 32 ad 3e 1d 43 e7 3d 08 99 74 3e
       0.13389145 0.33827212 0.11292098 0.23886502
0000e0 35 66 0a bc e4 14 ef be 2b 7b 95 3e 03 4a 40 be
       -0.00844722 -0.46695626 0.29195532 -0.18778233
0000f0 aa 2b 79 bd 7e 20 09 3f 6c 48 44 3e 3b 8a 2a be
       -0.060832657 0.53565204 0.19168252 -0.16654293
000100 26 e6 ba be 8b e7 9a 3e a4 9a 00 bf 9b b0 eb 3e
       -0.36503714 0.30254778 -0.5023596 0.46033177
000110 18 29 9f 3e 16 91 80 3e f9 4f 34 be 3a 5c 8c 3d
       0.3108604 0.25110692 -0.17608632 0.06853528
000120 e6 44 01 be e4 3f ec 3e 00 03 fa bd 53 37 0e bd
       -0.12623939 0.46142495 -0.122076035 -0.03472073
000130 fc bd 0d 3e 00 17 ad 3e b5 dc e7 3d 8d c2 74 3e
       0.13842005 0.3380661 0.113213934 0.2390234
000140 b6 61 45 bb 34 19 ef be bf 05 96 3e a5 ab 3f be
       -0.0030118055 -0.46698916 0.2930126 -0.18717821
000150 42 94 7f bd 10 2f 09 3f 71 4b 48 3e 1c c0 28 be
       -0.06239725 0.53587437 0.19560029 -0.16479534
000160 14 e3 bc be 0d f4 9a 3e e3 7d 00 bf 86 b5 eb 3e
       -0.36891997 0.3026432 -0.5019209 0.4603693
000170 15 c6 9e 3e 56 09 81 3e 97 7c 34 be d6 57 8c 3d
       0.310105 0.25202435 -0.17625652 0.06852691
000180 72 dc ad bd b4 20 00 3c 8f 31 06 be f4 b3 d9 3d
       -0.08489312 0.007820297 -0.13104843 0.106300265
000190 d0 a6 72 3e 42 c4 be 3c a6 0a 20 be ef 2b a2 3d
       0.23696446 0.023286942 -0.15629062 0.07918536
0001a0 29 64 92 bd c1 59 37 bf 80 88 29 3b 4f 4d 1c be
       -0.0714801 -0.7162133 0.0025868714 -0.15263866
0001b0 9f ec 8b 3e 19 fd 07 be 17 33 08 3e 10 cb bc 3e
       0.27328965 -0.13280143 0.13300739 0.36873674
0001c0 6e b0 8a 3e fa b9 c7 be 99 e4 c6 bd bc 6f a9 3d
       0.2708773 -0.39009076 -0.0971157 0.08273265
0001d0 60 14 25 be 5b eb 25 3e 59 64 26 be b0 bd be bd
       -0.16121054 0.16203062 -0.16249217 -0.09313524
0001e0 da 79 a6 bd bb b6 85 3c 6d e3 06 be 85 a6 db 3d
       -0.0812871 0.016322484 -0.13172694 0.107251205
0001f0 85 50 71 3e 2e 7c c0 3c 9c 9d 20 be ed c4 92 3d
       0.23565872 0.023496713 -0.15685123 0.07166467
000200 e4 b9 93 bd 58 57 37 bf 46 41 cb 3a 1d aa 1b be
       -0.0721319 -0.7161765 0.0015507124 -0.15201612
000210 f0 96 8d 3e 2b f1 0a be e6 8b 08 3e df d7 bb 3e
       0.2765422 -0.13568561 0.13334617 0.36688134
000220 10 87 8d 3e c1 82 c7 be 3a a1 cf bd 66 db 9e 3d
       0.27642107 -0.38966945 -0.101381734 0.07756691
000230 f7 72 27 be ca 6b 26 3e 0c 81 26 be df 23 be bd
       -0.1635245 0.16252056 -0.16260165 -0.092841856
000240 92 ee 93 bd fb cc 81 3c c8 d0 01 be b4 8e dc 3d
       -0.07223238 0.015844813 -0.126773 0.10769406
000250 ae bd 74 3e 03 0c c3 3c a8 9b 1f be 65 1e a5 3d
       0.23900482 0.023809439 -0.15586722 0.08062438
000260 71 5f 90 bd 6a 5a 37 bf 44 bd 3d 3c b9 81 1a be
       -0.07049454 -0.71622336 0.011580769 -0.15088548
000270 5c 03 95 3e 2c a1 fe bd 14 6f 09 3e f5 c1 c0 3e
       0.29104125 -0.12433085 0.13421279 0.37647977
000280 df 2e 8e 3e c6 9f c7 be ca f7 ca bd ef e7 af 3d
       0.27770135 -0.38989085 -0.09910543 0.0858916
000290 8f da 24 be 44 9c 26 3e d7 42 26 be 8e 38 be bd
       -0.16098998 0.16270548 -0.16236435 -0.09288131
0002a0 56 d2 9e bd 76 1e 9e 3c 47 ac 05 be 94 c6 dc 3d
       -0.07754962 0.019301634 -0.13054 0.10780063
0002b0 09 d1 6e 3e 93 ea c3 3c 70 d6 1f be dc 3e 8d 3d
       0.23321928 0.023915565 -0.15609145 0.06896755
0002c0 ce b6 96 bd 94 4d 37 bf a8 98 90 3b 1a c5 1a be
       -0.07359086 -0.7160275 0.0044127293 -0.15114251
0002d0 2f 4b 95 3e 20 77 0a be 70 af 04 3e b0 73 bf 3e
       0.29158923 -0.13522005 0.12957549 0.3739295
0002e0 ab e3 8e 3e f6 5a c7 be d4 5c d1 bd ad 78 8e 3d
       0.27908072 -0.38936585 -0.10222784 0.06956611
0002f0 34 0a 29 be 3d 81 26 3e 26 5b 26 be f9 bb bd bd
       -0.16507798 0.16260238 -0.16245708 -0.092643686
000300 d6 62 07 bf 1b 4b fc 3d a8 79 92 3d 1a cf 21 be
       -0.52885187 0.12319013 0.0715211 -0.15801659
000310 13 4b eb bd 16 a8 ec be 7d 35 ca bd fa ec 1f 3e
       -0.11488929 -0.4622199 -0.09873483 0.15617743
000320 3b 20 5c bd 6f c1 25 be 98 8f ab 3d 6c 29 7b 3d
       -0.053741675 -0.1618707 0.08376998 0.0613188
000330 ee d3 5d 3e 75 22 01 3e 39 ba 68 be 9d 5a 39 3e
       0.21662876 0.126108 -0.22727288 0.18100972
000340 14 30 c0 be f5 12 b7 3d b9 a4 b2 be 23 84 be be
       -0.3753668 0.08939163 -0.34891298 -0.37210187
000350 d3 d4 83 be ba 3a 08 3d 92 b1 a9 3e 66 b7 a2 be
       -0.2574831 0.03325913 0.33143288 -0.31780547
000360 7e 6c 07 bf 67 2e fc 3d 9c 2c 89 3d 1b 4c 22 be
       -0.5289992 0.12313538 0.06697962 -0.15849344
000370 62 eb ee bd 6c ad ec be f0 75 ca bd e5 b0 1c 3e
       -0.116659895 -0.4622606 -0.09885776 0.15301855
000380 5c 96 65 bd 64 0f 26 be 3a ef aa 3d 45 83 77 3d
       -0.056051597 -0.16216809 0.0834641 0.060427923
000390 48 8b 5d 3e 7d 54 01 3e 39 7f 69 be 8b 48 39 3e
       0.21635163 0.12629886 -0.22802438 0.18094079
0003a0 a2 70 c0 be 33 88 b6 3d 3f dd b2 be 5d 0b bf be
       -0.37585932 0.08912697 -0.34934422 -0.37313357
0003b0 cb ba 83 be d8 69 07 3d be af a9 3e 84 24 a3 be
       -0.2572845 0.033059925 0.33141893 -0.31863797
0003c0 9e 6d 07 bf 66 07 01 3e bf 39 9d 3d c4 4e 23 be
       -0.5290164 0.12600479 0.0767703 -0.15948015
0003d0 87 07 ee bd 95 d5 ec be 0d c0 ca bd 8c e0 21 3e
       -0.116225295 -0.462567 -0.09899912 0.15808314
0003e0 a4 5a 50 bd 52 95 26 be d5 8c b1 3d 16 ab 78 3d
       -0.05086769 -0.16267899 0.0866944 0.060710035
0003f0 03 47 5c 3e 85 6e 01 3e 22 6c 67 be a9 38 39 3e
       0.21511464 0.12639816 -0.22599843 0.1808802

bias f4 [96]
000000 0f fe 4b 3d a2 c5 4a 3d 93 3b 52 3d 3c 15 50 3d
       0.049802836 0.049504884 0.051326346 0.0508015
000010 eb 46 f7 3d 91 86 f2 3d 6f 4a f9 3d 6a 4c f3 3d
       0.120740734 0.11842073 0.121724 0.11879809
000020 90 3d 6f bc 4b 10 81 bc 02 cb 5f bc 23 37 82 bc
       -0.01460208 -0.01575484 -0.013659241 -0.015895432
000030 7d b0 81 3c b8 f9 af 3c 7d 8c 6f 3c 46 c8 94 3c
       0.015831226 0.02148138 0.014620897 0.018161904
000040 11 cf 11 b9 c7 5c 8f 3b d5 8c 06 ba 7b 00 90 3b
       -0.00013905416 0.0043750736 -0.000513268 0.0043945885
000050 01 bc ba 3d fe a8 bd 3d 89 24 b9 3d 49 0b bc 3d
       0.0911789 0.09260748 0.09040172 0.0918184
000060 c6 0e e9 3d 24 a1 e9 3d 27 76 e5 3d a0 ca e4 3d
       0.11379771 0.11407688 0.112041764 0.1117146
000070 0b 1c 9f bd f1 7f a0 bd ea 01 a2 bd ee ba a3 bd
       -0.07769021 -0.07836903 -0.07910521 -0.079946384
000080 d2 e6 3a 3b d9 22 b1 3b 7a 4a 43 3b 66 6c 10 3b
       0.0028518927 0.0054057655 0.002979903 0.0022037267
000090 bb 34 0a bc f4 28 f5 bb 41 58 d4 bb 89 5c be bb
       -0.0084354235 -0.0074816886 -0.0064802472 -0.005809371
0000a0 18 8a 9c 3d 93 1d 98 3d 4a 5f 9b 3d 58 19 98 3d
       0.07643527 0.07427516 0.07586534 0.07426709
0000b0 e8 79 2c bc 73 ad 45 bc 33 09 20 bc e3 64 42 bc
       -0.010527112 -0.012065279 -0.009767818 -0.011864874
0000c0 b5 56 2e bd b6 d5 27 bd b6 e7 30 bd d4 00 2c bd
       -0.04256316 -0.040975295 -0.043189727 -0.041992977
0000d0 5d a6 38 3d 35 80 40 3d a8 89 3e 3d 2b 82 46 3d
       0.04508053 0.046997268 0.046517998 0.04846398
0000e0 fe d6 b1 3d 1c d0 b4 3d 5b 57 b0 3d 5a 30 b3 3d
       0.08683585 0.08828756 0.08610412 0.08749457
0000f0 1c b2 85 3c 98 c5 91 3c 63 14 8f 3c c6 7f 9a 3c
       0.01632028 0.017794415 0.017465776 0.018859755
000100 6b 12 c7 bc c2 45 b6 bc e3 bb e1 bc da 04 d7 bc
       -0.024300775 -0.02225006 -0.027555412 -0.02624743
000110 45 6d 8f bd 8d cf 88 bd 1d 6a 8d bd 7a 87 81 bd
       -0.070032634 -0.06680212 -0.06905005 -0.06324668
000120 1a 77 aa 3a 23 e5 8c bb 07 27 64 3b 8a 08 a8 bb
       0.0013005466 -0.004299776 0.0034813301 -0.005127971
000130 bb 23 66 bc ae a1 6d bc fc 33 58 bc 51 d1 5c bc
       -0.014046605 -0.0145038795 -0.013195988 -0.013477639
000140 a7 e3 86 3d 64 5f 8b 3d 09 2c 88 3d 16 41 8c 3d
       0.0658639 0.06805304 0.06649024 0.06848352
000150 10 51 75 bc 62 29 6c bc 87 cd 72 bc 42 e0 6c bc
       -0.01497294 -0.014414163 -0.014819509 -0.014457764
000160 73 6b 4e b9 6b 6c 83 39 07 83 70 b9 b7 b5 76 39
       -0.00019685719 0.00025067045 -0.00022936995 0.00023528082
000170 68 a6 03 3e 63 73 05 3e 29 ec 03 3e e1 98 05 3e
       0.12856448 0.13032298 0.12883057 0.130466

weight f4 [27, 27, 3, 3]
000000 f2 38 c0 bd 23 da 99 bd 54 2e 0b bd 35 5d 7d bd
       -0.093858615 -0.075123094 -0.03397973 -0.061856467
000010 7e 4d 4a 3d 2a 2e 85 bd 76 d1 a0 3d 14 2d 8e bd
       0.04939031 -0.06502946 0.078524515 -0.06942192
000020 d1 2e 02 3e 1c bc 83 3e 5c 23 e4 bd 76 fc 44 bd
       0.12713172 0.25729454 -0.11139557 -0.048092328
000030 55 fa 70 bd dd 46 13 3e b1 8d 9a 3c 5b 14 8b bd
       -0.058832485 0.14382501 0.018866392 -0.06790992
000040 d0 72 d4 bd 7d 3f 13 3c 15 73 ca bd e8 f0 f4 ba
       -0.10373461 0.008987305 -0.098852314 -0.0018687518
000050 02 a5 2c 3e 7a 93 81 bc a3 07 75 3d e2 5f 50 bd
       0.1685982 -0.015817393 0.059821736 -0.05087269
000060 73 7e 1a bd a4 a3 c4 3d f9 cd 5e 3d 94 d4 4a ba
       -0.037718248 0.096015245 0.05439565 -0.0007737365
000070 60 03 c3 bd df b5 04 3d d3 02 c8 3d ce e9 d3 bd
       -0.09522128 0.03240001 0.09766164 -0.10347329
000080 ca 1c a1 bd 26 bb 03 3e 78 8c 0a 3e 17 d5 dc bc
       -0.07866819 0.1286436 0.13530147 -0.026957078
000090 7b 28 c9 bc c5 5b 32 bd 99 ff 88 3d d5 4d a2 bd
       -0.024555435 -0.04354455 0.066893764 -0.079250015
0000a0 25 98 9d bd 07 1a 12 3e 29 e1 55 bb 6d 12 d3 bc
       -0.07695035 0.14267741 -0.0032635427 -0.025765622
0000b0 be a3 69 3d 0b 68 12 3d f4 cb d8 bc 0d af cd bd
       0.057040922 0.035743754 -0.02646444 -0.10043154
0000c0 3b 46 03 3b b6 3b b2 bd ef 31 3e bd ed 88 49 3d
       0.0020030874 -0.08702795 -0.04643434 0.04920285
0000d0 2e 98 0a 3e 48 ef db bc 64 39 c4 bd e5 25 71 bd
       0.13534614 -0.026847497 -0.09581259 -0.05887403
0000e0 d9 a8 df 3d 62 43 32 be 4b 1d ee bc ab 8a da bd
       0.10920877 -0.17408517 -0.029066702 -0.1067098
0000f0 81 26 fc 3a c9 4b 09 bd 77 c3 b0 3c 4f d3 71 3c
       0.0019237549 -0.03351954 0.02157758 0.014759853
000100 c2 3b 0f be 20 47 8f ba 8d 49 e0 bc 81 f9 de 3c
       -0.1398764 -0.0010931231 -0.027378822 0.027218582
000110 4a 4a 41 3c 09 07 1c 3e 51 35 7f bc db 8a 04 bc
       0.011797497 0.15237059 -0.015576676 -0.008089746
000120 78 14 a5 3d 3a 1a 91 3c 22 99 83 bd 70 e6 04 3e
       0.08060545 0.017712701 -0.06425692 0.1297853
000130 40 17 82 3d e0 08 71 3d 0c 8f 44 bd ff 0d e4 bd
       0.06352091 0.058846354 -0.047987983 -0.11135482
000140 f5 cb f3 bc f9 4b cc bd 91 78 83 3c fb 5b 20 3e
       -0.02976034 -0.09975428 0.016048701 0.15660088
000150 df 7c a5 bc db b5 8c 3d 6e fc 42 3d e5 bd f2 bd
       -0.020201145 0.06870624 0.047604017 -0.11852626
000160 89 c1 e9 bd 93 c4 67 be a0 4f 9b bb 88 59 64 3b
       -0.11413867 -0.22633581 -0.0047397166 0.0034843404
000170 1e ab 32 3c 6f 2a 25 3e c6 3c 40 3d e9 65 f7 bc
       0.010905055 0.16129468 0.046932958 -0.030199962
000180 d6 01 c2 3d 33 7a c2 bd 66 4c 45 3c 2e b3 3f bd
       0.094730064 -0.09495964 0.012042141 -0.04680174
000190 67 74 88 3d 99 fa 3f 3d c8 2a 53 3d 48 4e f9 3d
       0.06662827 0.046869848 0.05155447 0.12173134
0001a0 cb e8 1d be 61 e5 42 3b dd 3f 2c 3c 3a dd 04 bd
       -0.15420835 0.0029738771 0.010513273 -0.03243754
0001b0 63 e6 38 be 31 ed 99 bd 55 f8 3a 3d cb 7a 24 be
       -0.18056636 -0.07515944 0.045646984 -0.16062467
0001c0 d5 6a 63 3e 38 d1 34 3e 41 c8 47 3d fa 75 4e bd
       0.22208722 0.17657936 0.04877496 -0.05040548
0001d0 13 a7 59 bc f4 29 55 3c 4b 5f ec 3d 32 41 05 bd
       -0.0132844625 0.013010491 0.11541613 -0.03253288
0001e0 a3 35 4e 3d 82 cb 4b bd b7 3d 2b 3d 11 05 e0 bb
       0.05034412 -0.049754627 0.041806903 -0.0068365415
0001f0 55 ed fe bd 45 d5 20 bc 37 38 00 3e 88 90 4d be
       -0.12447611 -0.009816472 0.12521444 -0.20074666
000200 84 99 90 bc ff 53 ac 3d 3e b3 0c bd 35 38 b6 bd
       -0.017651327 0.084144585 -0.034350626 -0.088974394
000210 de f8 28 3e 58 78 23 3b 99 ab 8a 3d 7e b1 46 be
       0.16501185 0.0024943557 0.06771011 -0.19403645
000220 42 95 8b bd e4 25 15 3d 4d db 6f bd 23 fd ab 3d
       -0.06815578 0.03641309 -0.05855875 0.08397891
000230 d7 d4 b6 bd bf fc 34 3d 1f 7b 34 3d dc 53 1d be
       -0.08927315 0.04418635 0.04406273 -0.15364021
000240 d2 56 3c 3d 6a 63 8a 3d 74 89 1c be 0f be d0 3c
       0.045981236 0.06757243 -0.15286809 0.025481252
000250 0c b5 43 bd 57 cf 08 3e 12 ef 2a bd 17 eb a2 bd
       -0.04778008 0.13360344 -0.0417319 -0.07954996
000260 98 1e e1 bd 7e 04 9d bd 22 ad 41 3d 05 83 ee 3d
       -0.109921634 -0.076668724 0.047284253 0.11646084
000270 04 7e 0c be 56 29 63 bd a5 bd 65 bb 48 07 1d 3d
       -0.13719946 -0.055459343 -0.0035055664 0.038337022
000280 14 20 08 3e 56 f7 b3 bb 11 d3 55 be 0a 4f 2b be
       0.13293487 -0.005492131 -0.20881297 -0.1672937
000290 cf fd df 3d a4 d0 6e 3d 91 7c 44 3e a3 ef 88 bc
       0.10937082 0.058304444 0.19188143 -0.01671583
0002a0 39 d1 c1 bd 55 8a 17 bc 5e c2 b6 3d 35 42 4f bd
       -0.09463734 -0.0092492895 0.08923791 -0.05060025
0002b0 99 56 a5 bd 6a 0a 23 3e f9 7c 59 bc 2a 1f 4a 3d
       -0.08073158 0.15921941 -0.013274425 0.049346127
0002c0 19 2b 3d 3d 37 92 ac bd a4 2d 65 3d 30 18 03 3e
       0.04618368 -0.08426326 0.05595173 0.12802196
0002d0 5b 05 64 3d 77 b1 54 bd 01 65 c2 3d 50 3e 92 bd
       0.05566917 -0.051927056 0.09491921 -0.071407914
0002e0 60 28 a4 3c f3 f9 ab bc 9e 54 b9 3b 7d 2f 1e 3e
       0.020038784 -0.020993209 0.005655839 0.15447803
0002f0 74 db bb bd b5 b9 02 bc 53 40 56 3d 99 fd 35 3e
       -0.09172717 -0.007978846 0.052307438 0.17772521
000300 70 e1 11 3d 43 1a 51 bc 5b 01 33 3e a6 ea a1 bd
       0.035615385 -0.012762609 0.17480986 -0.07906084
000310 92 ff 93 bc cb 40 a6 3c 53 d4 a2 bd 38 dc 28 bc
       -0.018066201 0.020294568 -0.07950654 -0.0103064105
000320 a5 31 74 bd d3 0e 88 bd f6 ad e9 bd 11 c2 1b bd
       -0.059617657 -0.066434525 -0.114101335 -0.038026873
000330 f5 a9 37 3d 55 fd 26 35 56 c2 a0 3d c5 72 06 3d
       0.044839818 6.2208466e-07 0.07849567 0.032824297
000340 fc 0f 86 3d 02 0f 22 bd d2 0f d8 3c b0 f4 e5 bc
       0.065460175 -0.039565094 0.026374731 -0.028070778
000350 71 08 52 bb bb 8e 07 be c6 f6 6e b6 db 67 00 bd
       -0.0032048489 -0.13238041 -3.5608405e-06 -0.031349044
000360 3c f2 3f bd 8c af 7a 3d 3a 29 84 bd f0 c2 29 3c
       -0.046861872 0.06120257 -0.06453176 0.010361418
000370 62 32 89 bd e4 50 4d 3d 39 01 0f 3d 35 8e 7f 3d
       -0.06699063 0.05012597 0.034913275 0.06239148
000380 aa 1b ee 3d e8 77 0f 3e 55 91 44 be c9 03 9c bc
       0.1162637 0.14010584 -0.19196065 -0.019044774
000390 44 07 d9 3d cb 8a 9f 3d 9d b4 a1 3c 7a 11 93 bc
       0.10597089 0.077901445 0.019739443 -0.01795267
0003a0 ae 9c 9f bc 67 b8 a1 bd 2f 3b 91 3d 52 9e 85 bd
       -0.01948389 -0.078965 0.070913665 -0.06524338
0003b0 e9 df 0f bc 5c 1c 20 3d 72 c6 59 bd bc 5a 38 bd
       -0.008781412 0.039089546 -0.053167768 -0.045008406
0003c0 57 46 1a bd 23 b5 ae bd cd 8e bb 3d 41 a1 38 3d
       -0.037664738 -0.08530643 0.091580965 0.04507566
0003d0 ae 4e 01 3c 39 94 4d 3d 67 d6 c5 bd 60 15 ca 3d
       0.007892294 0.050190184 -0.096600346 0.09867358
0003e0 20 66 ec bd 34 9b 8f bd 27 d4 8b 3c ce 76 a6 bc
       -0.11542916 -0.070120245 0.017068936 -0.020320322
0003f0 38 b9 48 3c ae 07 49 3e e3 e8 cb 3d dc b2 59 bd
       0.012251191 0.19631836 0.09956529 -0.05314909

bias f4 [27]
000000 9f 97 dd bb ec 91 5a 3d 45 99 1e 3c 19 7e 20 bd
       -0.0067624594 0.05336182 0.009680097 -0.039182756
000010 03 6c 0d bd 24 fa 1c bd f1 a1 08 bd c9 ce 40 3c
       -0.034526836 -0.03832449 -0.033357564 0.011768051
000020 94 12 9d bb 18 ef 06 bd b0 14 41 3c 6b 68 34 bc
       -0.0047934745 -0.03294286 0.011784717 -0.011011223
000030 de ac 63 3d c4 33 66 bc e9 f9 e0 ba e9 78 69 3d
       0.05558478 -0.014050428 -0.0017164323 0.057000075
000040 08 df 9f bd 34 c0 10 bc 65 24 88 3d 66 1a a4 3d
       -0.07806212 -0.008834887 0.06647567 0.080128476
000050 c5 93 31 3d 93 a5 5f 3d 88 1e bf bc 68 d6 80 bd
       0.043353815 0.054601263 -0.023329988 -0.06290895
000060 96 aa 84 bd 8b aa dc 3d 36 71 b1 3c
       -0.06477849 0.10774716 0.021660428
